source/contrast_learning/HURI_model.ckpt (torch, 498149 bytes, 6 tensors)

layer_pro.0.weight f4 [220, 343]
000000 6b dc f2 bf a4 6c 8e bf bf 93 91 bf 28 09 b1 be
       -1.8973516 -1.1126904 -1.1373214 -0.34577298
000010 e7 96 a5 3f ca db 4b 3f d2 1b 05 bf 2f e1 8a bf
       1.2936677 0.79632246 -0.51995575 -1.084997
000020 b4 fa 50 be 9a 85 d1 be fc 97 0b bf 48 5f 18 c0
       -0.20408136 -0.40922242 -0.54528785 -2.3808155
000030 ce d4 01 bf 6a a0 d5 bf 35 22 11 bf de c8 8f bf
       -0.5071534 -1.668958 -0.5669282 -1.1233175
000040 6b 40 35 bf 08 e7 b6 bf 19 d0 99 3f a0 de fe 3e
       -0.7080142 -1.4289255 1.2016631 0.49779224
000050 4a 1a c8 bf 6e 42 bf bf 3d 5c 9c bf f1 d3 c7 3e
       -1.5633023 -1.4942148 -1.2215649 0.39028886
000060 6e 16 a7 3f 23 1e dd 3f 3e 81 cb be ba ec eb 3c
       1.305372 1.7274822 -0.3974704 0.028799403
000070 76 95 23 be 5b 42 01 bf f0 b8 12 bf f2 42 b6 bf
       -0.15974984 -0.50491875 -0.5731344 -1.423918
000080 33 03 b3 bd 35 c9 1c 3f 03 26 92 bf 5f 5b a9 3d
       -0.087408446 0.6124452 -1.141785 0.08269381
000090 2c de bd be 59 af b1 bf 9b 3b b5 3f 2f b7 b2 bf
       -0.37083566 -1.3881637 1.4158815 -1.3962153
0000a0 0c bd ee 3d 13 80 54 3e 0b 18 a6 bf 55 ec a7 bf
       0.116571516 0.20751981 -1.2976087 -1.3118998
0000b0 31 fd 2b bf 4b 0c 96 bf d0 f5 a2 3a 50 74 13 3f
       -0.67183214 -1.1722502 0.0012432877 0.57599354
0000c0 cc c2 3c 3f 7b d8 6d bf ef 88 01 be a4 35 c4 bf
       0.73734736 -0.9290845 -0.12649892 -1.532887
0000d0 61 30 84 3f 55 be 18 bf ef 9c c0 be fa 39 77 bf
       1.0327264 -0.59665424 -0.3761973 -0.9657284
0000e0 81 ef 72 bf 4d ed 55 bf f7 ca ce be 1d 30 02 c0
       -0.94896704 -0.8356522 -0.40389225 -2.0341866
0000f0 9f 20 da 3e 1e 2f 4e bf f6 56 31 bf f5 11 8c bf
       0.42603013 -0.80540645 -0.69273317 -1.094298
000100 9a 09 01 c0 5d d1 30 3e af 4d 60 bd 9d 4a 45 bf
       -2.016211 0.17267366 -0.054761585 -0.77066976
000110 4a 9b 91 bf 76 3e 74 bf 7f 17 d7 3e ea 5b e7 bf
       -1.1375515 -0.9540781 0.42010114 -1.8074925
000120 bb 40 90 bf a7 b1 a8 bf 4a 9a 5a bf 5d 5a 9d be
       -1.1269754 -1.3179215 -0.85391676 -0.30733004
000130 dc 42 9a bf 11 d8 b9 bf bd 02 6b 3f 75 d3 b8 3e
       -1.2051654 -1.4519063 0.91801053 0.3609883
000140 53 40 d0 be cf 4f b2 be bc 89 75 bf fc 0c c1 3c
       -0.40674075 -0.34826514 -0.9591329 0.023565762
000150 2e a5 a0 bf cb 7b 18 c0 8d 03 58 bf ef 53 56 3f
       -1.2550409 -2.3825557 -0.8438042 0.8372182
000160 df 7c 8e bf f5 fa 7f bf ab 1c 40 be ca 04 c8 bf
       -1.1131858 -0.99992305 -0.18760936 -1.5626462
000170 e2 4e 71 bf 29 22 0d c0 77 7b d2 3e 57 dd 75 bf
       -0.9426099 -2.20521 0.4110982 -0.9604086
000180 9c 07 9e 3e e8 82 cc 3e f9 f5 45 3e 32 1b 86 bf
       0.3086518 0.39943624 0.19332112 -1.0477049
000190 7f de 62 3e e4 6d 48 bf d2 03 d0 bf 20 ee cb bf
       0.22155188 -0.7829268 -1.6251166 -1.5932045
0001a0 55 07 bc be e5 3c 0a bf 76 ce cf be 0d eb ad bf
       -0.36724344 -0.5399917 -0.40587205 -1.3587357
0001b0 8f 77 a2 bf 96 d6 38 be b7 3c 2b c0 d1 d9 8e bf
       -1.2692736 -0.18050608 -2.6755807 -1.1160222
0001c0 d0 ce 17 be 66 db 86 bf 99 e8 a0 be c7 86 9a 3e
       -0.14824986 -1.0535705 -0.31427458 0.30180952
0001d0 29 10 13 3f f6 29 b9 3e 2c c6 81 3f a2 49 72 3e
       0.57446533 0.36164826 1.0138602 0.23660901
0001e0 a1 50 d3 bf 03 23 19 be 77 3f a4 bd 3e 4d 5b bf
       -1.6508981 -0.14954762 -0.080199175 -0.8566474
0001f0 e6 d4 bc be 16 1e 38 bf 6f 79 a2 be 95 59 d3 be
       -0.3688118 -0.7192091 -0.3173327 -0.41279283
000200 f2 32 a9 3f 2a 82 ef be fa 4c 4d bd fa 72 26 bc
       1.3218672 -0.46778995 -0.05012224 -0.0101592485
000210 42 3b 83 be 54 eb 08 bf ff 26 81 bf 8b 3f ab be
       -0.25631148 -0.5348408 -1.0090026 -0.33446917
000220 e1 36 8d 3e d3 b2 bb 3f 52 f0 12 3f 3c 33 19 3f
       0.27580932 1.4663948 0.5739795 0.598438
000230 bf 23 58 bd 8c 1d 8c bf ae ab 6b bd c2 a0 51 3f
       -0.052768465 -1.0946517 -0.057536773 0.8188592
000240 63 1e ee bc c4 f6 ed 3e 4d b8 20 bf c8 b3 be be
       -0.029067224 0.4647733 -0.6278122 -0.37246537
000250 c7 a4 96 bf 83 52 00 3f 43 68 19 3f a8 8f 45 3f
       -1.1769036 0.501259 0.59924716 0.7717233
000260 8e 85 1e 3f 38 54 21 3e ba e2 50 3f 7a fd 21 c0
       0.6192254 0.15754783 0.8159596 -2.531096
000270 98 81 c6 bf a2 f8 06 3f 2a 15 13 be c6 86 65 be
       -1.5508299 0.52723134 -0.14363542 -0.22414693
000280 dc a4 80 bf 03 2a 88 be 94 70 83 bf 05 e7 77 bd
       -1.0050311 -0.26594552 -1.0268731 -0.06052305
000290 67 38 19 bf cb 3b 3a be 7f bf 8a 3f c7 9a 0f 40
       -0.5985169 -0.18186872 1.083969 2.2438219
0002a0 c4 1f 52 bf 84 a6 03 3f d2 83 17 3e 07 e0 27 bd
       -0.8207972 0.5142596 0.14796379 -0.040985133
0002b0 b1 d2 de be 08 98 b8 bf e1 38 8b 3f 7f a1 36 bf
       -0.4352012 -1.4421396 1.0876733 -0.71340173
0002c0 a8 2c d0 be f1 cd 3f bf 3d 84 01 3e f7 bb 8e 3f
       -0.4065907 -0.74923617 0.12648101 1.1151112
0002d0 e1 c0 56 3f 1f 84 fc 3e ac c3 15 c0 b7 13 47 3e
       0.8388806 0.4931955 -2.3400679 0.19441114
0002e0 49 aa 47 bf 71 aa 91 bf e8 c1 94 bd a7 3b d3 3e
       -0.7799421 -1.138014 -0.07263547 0.4125645
0002f0 b2 ed 04 3f 40 0c ef be 61 57 65 bf 51 da de 3f
       0.51925194 -0.46689034 -0.89586455 1.7410375
000300 17 69 d9 bf 12 6b 2b be 47 ce 88 3f 82 3b 01 c0
       -1.6985196 -0.16740063 1.0687951 -2.019257
000310 7a 15 e7 be f9 85 c4 bf bf 2f 1d 3f a5 d0 a7 3c
       -0.45133573 -1.5353385 0.6140098 0.020485232
000320 6f 8b 33 bf 6f 96 81 be 23 ae 5f bf ce f7 ae 3e
       -0.70134634 -0.25310084 -0.87375087 0.34173435
000330 46 99 41 bf 6d 32 e7 3e d9 70 b2 bf e8 c3 84 be
       -0.756245 0.4515566 -1.3940688 -0.25930715
000340 a1 cf 7c be 13 9e a4 3d b9 1e 03 c0 df 51 8b 3f
       -0.24688579 0.08037963 -2.0487502 1.088436
000350 5b 44 a6 be 65 94 2d bc 47 a8 2b bf 1b 40 b5 3e
       -0.32474026 -0.010594462 -0.67053646 0.3540047
000360 b7 62 8d 3e f7 9e 50 be 87 4d e8 be b6 50 78 3f
       0.27614376 -0.2037314 -0.4537165 0.96998155
000370 82 fb 60 bf 48 94 71 3e 59 84 23 3d bd 6d 62 3f
       -0.8788377 0.23591721 0.03992114 0.884487
000380 f5 0f f9 be 57 8f ac be 57 73 32 bf 32 29 e2 3f
       -0.48644987 -0.3370311 -0.69707245 1.7668822
000390 44 a9 00 3f e4 d7 3d 3f 17 09 6e 3f ed 20 5f 3f
       0.5025828 0.7415755 0.9298262 0.87159616
0003a0 ed 17 fb 3d 71 fa 41 bf 71 d8 87 be ec 33 20 3f
       0.12260423 -0.7577277 -0.2653232 0.62579226
0003b0 78 83 0d 3b c1 cf 91 be cf 14 b8 bf 86 68 f4 3e
       0.0021593254 -0.28478816 -1.438135 0.47735995
0003c0 e6 49 22 3f 8b 27 f4 3e 80 ab 03 bf b0 9e f1 bf
       0.6339401 0.4768642 -0.51433563 -1.8876553
0003d0 8d d2 b8 3f ce 2b 76 be f7 4d 00 bf 2e 9a 00 bf
       1.4439255 -0.24040148 -0.50118965 -0.5023526
0003e0 4d ce 0e bf 5d f2 93 be 83 35 5d bf 78 0f f1 be
       -0.5578354 -0.28895846 -0.8640978 -0.47082114
0003f0 35 13 82 3e 73 3c 6f bf 4a 33 d6 bf 5c 37 63 bf
       0.2540528 -0.93451613 -1.6734402 -0.88756347

layer_pro.0.bias f4 [220]
000000 cc 96 c6 be fb 4b da bf 0c 71 54 3e d2 6e 81 c0
       -0.38786924 -1.7054437 0.20746249 -4.044778
000010 b0 43 09 c0 42 03 61 bf d4 44 1f c0 e3 3b 93 bf
       -2.1447563 -0.87895596 -2.488576 -1.1502651
000020 6e d1 95 bf db 5d d9 bf 94 5e f8 bf 80 9d 84 bf
       -1.1704538 -1.6981767 -1.9403863 -1.0360565
000030 8c 4b 24 bf cd 6d 9d bf 7a 01 30 c0 e8 af 5b bf
       -0.64177775 -1.2299134 -2.7500901 -0.85815287
000040 b8 e5 07 3e 9d b7 0e c0 15 c7 0d c0 52 1d ed bf
       0.13271224 -2.2299569 -2.215276 -1.8524573
000050 78 88 08 c0 65 b1 63 bf 14 3e 88 c0 da 38 30 bf
       -2.1333294 -0.8894256 -4.257578 -0.6883675
000060 d2 c4 09 bf ac b3 2d c0 98 36 40 bf 8a 8c 02 c0
       -0.5381595 -2.7140913 -0.75083303 -2.0398278
000070 b4 29 40 c0 08 22 54 c0 a9 47 01 c0 bb db e1 3f
       -3.0025454 -3.314577 -2.0199988 1.7645181
000080 51 03 c1 bf 3b c2 59 c0 92 b8 00 3f 1b 3e 27 bf
       -1.5079137 -3.40248 0.5028163 -0.6532914
000090 27 94 32 c0 58 62 ae 3f 35 dc 89 bf 0b 29 df bf
       -2.7902925 1.3623762 -1.0770327 -1.74344
0000a0 ee 6c 82 c0 17 9a e4 bf 5a 42 43 c0 16 d9 36 c0
       -4.075797 -1.7859524 -3.0509248 -2.8569999
0000b0 41 aa f8 bf ea 97 82 c0 7d 92 54 c0 05 c6 4e c0
       -1.9426957 -4.081044 -3.321441 -3.2308362
0000c0 87 5d 27 c0 c3 6e 15 bf 63 4b 44 c0 f4 ef 39 c0
       -2.6150835 -0.58372134 -3.0671012 -2.9052706
0000d0 d4 16 82 3e 9e 39 5b be 68 6b 39 c0 04 2f 3e c0
       0.2540804 -0.21408698 -2.8971806 -2.9716196
0000e0 cb 51 1e c0 86 3f 30 c0 2f fa 03 bf ad db 1f c0
       -2.4737422 -2.7538772 -0.51553625 -2.497783
0000f0 18 d7 1e 3e c6 6f 63 bf f1 9d 68 bf 75 1e 37 c0
       0.15511739 -0.8884243 -0.90866 -2.861234
000100 92 54 1a c0 2f 97 71 c0 ba 78 62 bf ca 91 99 bf
       -2.4114118 -3.7748525 -0.88465464 -1.1997616
000110 b4 99 22 bf e1 b9 e0 bf 66 13 77 c0 67 c2 af be
       -0.6351578 -1.7556726 -3.860559 -0.34328005
000120 57 b9 41 c0 cd 2f 13 c0 e9 39 0a c0 23 5b 92 bf
       -3.0269372 -2.2997925 -2.1597846 -1.1434063
000130 33 4d 7c c0 37 d4 ab bf e3 96 96 bf 53 8f 52 c0
       -3.9422119 -1.3424138 -1.1764797 -3.2899978
000140 65 24 56 c0 fc bb 13 c0 a5 24 13 c0 ad 7e dd 3d
       -3.3459713 -2.3083487 -2.2991116 0.10815177
000150 54 c2 36 c0 92 51 05 bf b7 5b 96 3d 8e 31 83 c0
       -2.8556108 -0.5207759 0.07341712 -4.099799
000160 aa 87 26 c0 0a 1f 74 c0 e2 4d 82 c0 72 cd a6 bf
       -2.6020303 -3.8143945 -4.072007 -1.3031447
000170 a4 64 4a c0 19 90 2a c0 c0 2f 4e c0 25 2b 45 c0
       -3.1623926 -2.665045 -3.2216644 -3.0807583
000180 88 90 f8 3f f6 27 28 c0 8c ca 4d be 20 81 80 bf
       1.9419107 -2.627439 -0.20096797 -1.0039406
000190 b5 f8 85 c0 48 a5 1a c0 f0 f7 48 c0 8b 7a a2 bf
       -4.1866097 -2.416338 -3.140133 -1.2693647
0001a0 b8 26 04 c0 9d 1d 66 bd 23 4c 53 c0 64 64 c8 bf
       -2.0648632 -0.056180585 -3.301522 -1.5655637
0001b0 0f 10 7f 3d 74 10 92 c0 d8 7e e3 3f 0b 7d 9a c0
       0.062271174 -4.5645084 1.7773085 -4.827764
0001c0 e2 7f 36 c0 ad 27 19 c0 6a 02 5e bf d1 e4 ea bf
       -2.8515553 -2.3930466 -0.86722434 -1.8351079
0001d0 95 fd 65 c0 2c 51 35 c0 cb 0e 32 c0 d4 2c f1 bf
       -3.5936024 -2.8330793 -2.782153 -1.8841805
0001e0 63 e3 83 c0 86 2c 5e bf ba 19 64 c0 bf 5c 05 c0
       -4.121507 -0.8678669 -3.5640702 -2.0837858
0001f0 97 66 a6 c0 f2 da 11 bf 6e 0c 35 c0 96 51 07 3f
       -5.200023 -0.5697471 -2.8288836 0.52858865
000200 1e a8 10 c0 fb 51 c7 bf f6 b4 a0 c0 22 27 8b bf
       -2.260261 -1.5571893 -5.02209 -1.0871317
000210 ac 5a b9 bd 20 af 49 c0 45 8c da bf 56 cd 4c c0
       -0.090504974 -3.1513138 -1.7074057 -3.2000327
000220 a6 fe 10 c0 a0 8d 2a bf cf 17 96 bf cb ad c0 bf
       -2.2655425 -0.6662235 -1.1726016 -1.5053037
000230 3e 6f 76 c0 70 2a 30 c0 f3 77 cd bf 7b 63 12 c0
       -3.8505397 -2.7525902 -1.6052231 -2.2873218
000240 29 11 09 c0 47 95 62 c0 5b d8 97 bf 8c b3 b8 3e
       -2.1416724 -3.5403612 -1.1862901 0.36074483
000250 24 43 89 c0 13 19 b0 bb 64 5e 7f c0 2e c8 6e c0
       -4.289446 -0.005374083 -3.9901361 -3.730968
000260 04 80 42 c0 c4 74 af bf 9b b5 b4 bf 5e 7e 90 c0
       -3.0390635 -1.3707509 -1.4117922 -4.5154257
000270 97 57 7e bf 5c f6 2c c0 e8 81 ff bf 9a 46 07 3c
       -0.993524 -2.7025366 -1.9961519 0.008256579
000280 98 2e 06 bf 12 3e 06 c0 3c 8f a1 bf e1 6d 23 c0
       -0.52414846 -2.0975385 -1.2621837 -2.5535815
000290 43 0c 5f be 80 6a 1f c0 9b e1 50 bf 15 1c cf bf
       -0.21782021 -2.4908752 -0.81594247 -1.6180445
0002a0 f8 05 2d 3f f4 55 a4 bc 3a 25 f1 ba 66 5e 6b c0
       0.6758723 -0.020060517 -0.0018397935 -3.6776366
0002b0 62 92 0e c0 a1 65 e2 bf 35 54 f6 bf 69 0b aa bf
       -2.2276845 -1.7687265 -1.9244448 -1.3284732
0002c0 d4 83 9f bf 36 de 95 c0 a1 0e 38 c0 b8 30 a5 bf
       -1.2462106 -4.6833754 -2.8758929 -1.2905493
0002d0 fa 32 6f c0 83 bd 33 c0 90 fe fe bf b3 f6 f8 bf
       -3.7374864 -2.8084419 -1.9921436 -1.9450287
0002e0 c6 c2 3b c0 37 87 21 c0 6b d3 e9 bf 68 ae 0d c0
       -2.933763 -2.5238779 -1.8267645 -2.21377
0002f0 30 fe 6c c0 3a 42 bb bf 20 8e ec bf 34 e3 11 c0
       -3.7030144 -1.4629586 -1.8480873 -2.2794924
000300 49 01 2d be 69 77 c7 3f b6 9d 19 c0 22 3e 9a 3b
       -0.16895021 1.5583316 -2.400251 0.004707114
000310 a7 b6 42 c0 7f d0 20 c0 0e 1c f1 bf b5 79 bf bf
       -3.0423982 -2.5127256 -1.8836687 -1.4959017
000320 85 97 ad bf 43 f7 16 bf f7 1a 31 c0 a2 ec 23 c0
       -1.3561865 -0.5897104 -2.7672708 -2.561318
000330 49 b7 b8 bf 97 db 23 c0 b3 49 1b bf 52 54 0c 3e
       -1.4430934 -2.5602777 -0.6065933 0.1370404
000340 25 fc 6e 3e 8a a5 57 c0 6a a3 2c c0 90 91 af bf
       0.23338373 -3.3694787 -2.697474 -1.3716297
000350 be 1e c0 bf c5 91 f2 bf 74 74 01 c0 e4 f9 1e be
       -1.5009382 -1.8950735 -2.0227327 -0.15525013
000360 1a 22 28 c0 a0 46 24 bd d8 d8 9e bf a0 30 6c bf
       -2.6270814 -0.040106416 -1.2409925 -0.92261696

layer_pro.2.weight f4 [150, 220]
000000 97 d6 3f 3e 74 2b 2b bf 0e ca 25 be eb 8f 49 be
       0.18734203 -0.6686318 -0.16190359 -0.19683807
000010 a1 e9 63 bf 61 2a 3f bf 51 f9 99 3d 19 95 58 bf
       -0.89028364 -0.7467404 0.075182565 -0.84602505
000020 46 0a fc bd 0d 5c ed 3e e6 45 40 be c0 2e 15 3d
       -0.12306647 0.46359292 -0.18776664 0.036421537
000030 0c 40 17 be 4f 3d a0 bd e0 80 22 3e c8 db 9a 3e
       -0.14770526 -0.07824194 0.15869474 0.30245805
000040 b7 66 bb 3e 4f 01 03 be 96 2d dd be d8 9b 81 bd
       0.36601803 -0.12793468 -0.43198842 -0.06328553
000050 5d ba 29 be de 60 65 be e6 00 30 3f 3b d7 4b bb
       -0.16574998 -0.22400233 0.6875137 -0.003110363
000060 21 c0 88 bf 89 c2 ec bd df 22 56 be 72 99 4d bf
       -1.0683633 -0.11560542 -0.2091174 -0.80312264
000070 5b 47 5b bf cd b5 a1 3e c5 bb 78 3f 32 94 57 bf
       -0.85655755 0.31584015 0.97161514 -0.84210503
000080 9a 1b ad be e0 8f 51 be 68 db 5e be 87 81 fd be
       -0.3381012 -0.2046504 -0.21763384 -0.49512884
000090 2b 60 a2 3e 1a 3a ab be b4 55 d6 3e 6f 66 c6 be
       0.31713995 -0.33442765 0.4186226 -0.38750026
0000a0 40 10 03 3f fc 7e 4b b9 24 96 b8 3e 12 22 67 3e
       0.5119667 -0.00019406894 0.36052048 0.2257159
0000b0 d2 8e 30 bf ae a6 7e 3e 5a 99 e5 be 67 78 d3 be
       -0.68967927 0.24868271 -0.4484356 -0.41302797
0000c0 0b 9a 4d be 7b f4 89 3e f9 34 40 3e 10 18 28 be
       -0.20078294 0.26944336 0.18770207 -0.16415429
0000d0 23 15 05 be 14 99 13 3d 0d 60 01 be 17 22 8b 3c
       -0.12996344 0.03603466 -0.12634297 0.016984029
0000e0 9d d3 e8 3c b7 48 22 be 31 58 55 3f 3e 62 36 3e
       0.028421218 -0.15848051 0.83337694 0.17810914
0000f0 97 ca e2 3d 46 8a 28 bf 89 0b e3 3e c4 33 69 3e
       0.11073797 -0.6583599 0.44344738 0.22773653
000100 9f a1 86 bf bf 48 af 3e 8b f7 b6 be 15 a4 a9 be
       -1.0518073 0.34235188 -0.35735735 -0.33132997
000110 28 43 6d bf 1d f3 d2 be 78 49 5f bf 4c 33 88 be
       -0.926806 -0.41201106 -0.8722148 -0.26601636
000120 cd d8 b9 be 08 d3 4f be bb 9c e1 be 78 21 e7 be
       -0.36298218 -0.20295346 -0.44064888 -0.45142722
000130 d7 e0 19 3f bc 6b 1e 3f f4 5b 17 3e ac 3d 9b 3e
       0.60108703 0.6188314 0.14781171 0.3032049
000140 a6 1f 93 3e 1e 36 f9 3d ad 90 9f be 8a b2 65 bd
       0.28735083 0.12168525 -0.31165066 -0.05607847
000150 f5 97 7b 3e 03 61 ca be b4 87 0d bf 46 5b 31 bd
       0.24569686 -0.3952714 -0.5528519 -0.043299936
000160 de 4d 24 bf 64 21 37 3f d4 2e 4b be fc ba aa be
       -0.64181316 0.71535325 -0.19842082 -0.33345783
000170 5a c3 02 3e 21 ef 25 be a8 d5 d0 3e 75 7c bf be
       0.12769833 -0.16204502 0.40788007 -0.3739964
000180 2d f4 45 3e 4c b6 22 3d bc 74 1c 3f b9 3c 46 be
       0.19331427 0.039724633 0.6111562 -0.19359101
000190 72 71 bc be 8a dd 29 3f 58 32 59 3d 29 8f a6 be
       -0.36805302 0.66353667 0.053026527 -0.32531098
0001a0 89 58 ec be 54 80 d7 bd 29 f3 9f 3e 23 21 ee 3d
       -0.46161297 -0.105225235 0.31240204 0.11627414
0001b0 b0 7a 6b be 9f db e6 be 62 32 84 3d c7 66 bd bd
       -0.2299602 -0.45089433 0.06454922 -0.09248119
0001c0 76 2e ab 3e ca 65 93 3e 5a f6 38 bf cf a6 cc be
       0.33433884 0.28788596 -0.722509 -0.39971015
0001d0 a8 30 8b be 5e 49 d9 3e 80 5b 44 bf 00 c1 ef bd
       -0.2718556 0.42438787 -0.7670212 -0.11706734
0001e0 91 68 6a 3e 43 81 c1 3d 70 93 be 3d 38 12 12 bf
       0.22891451 0.09448483 0.09305465 -0.5705905
0001f0 05 13 bf 3e f7 9d 23 be 4e 48 10 be a5 f9 e7 be
       0.37319198 -0.15978228 -0.14090082 -0.4530765
000200 fd ea db 3c 31 fb 02 3e 4b 97 15 3f 71 f0 81 3c
       0.02684545 0.12791134 0.5843398 0.015861722
000210 8c 2d b8 be 17 c4 5a 3d 83 14 e4 be 6d 8b 1e 3f
       -0.3597225 0.053409662 -0.445469 0.61931497
000220 2e 47 20 3e e4 44 bc 3e cd 45 f3 3d 90 f7 cc be
       0.15652153 0.3677131 0.11878548 -0.40032625
000230 42 fc 9b be 4e 94 7f bd 7b e1 0a bf 5c fe 00 3f
       -0.30465895 -0.062397294 -0.54250306 0.5038812
000240 e9 95 bb be 78 a1 50 3d 32 95 b1 3a 1e 7f 4a 3f
       -0.3663781 0.05093524 0.0013548492 0.79100215
000250 44 0b 7e be 99 c1 56 bf a1 28 ad bd cf c5 e3 3d
       -0.24808985 -0.83889157 -0.08455015 0.11121713
000260 e3 12 87 be 5b 0b 98 3e f9 8c 04 3e 94 1a 85 bb
       -0.26381597 0.29696164 0.12944402 -0.0040620063
000270 68 49 49 3e a5 f8 6a be e4 8a 09 bf 91 4b 55 bf
       0.19656909 -0.22946413 -0.53727555 -0.8331843
000280 be db 96 be ea 08 31 3f ce 63 d2 bd b0 7f 33 3e
       -0.29464525 0.69154227 -0.102729425 0.17529178
000290 90 c3 05 3f d1 95 ff bd fd 72 fd be a4 74 56 bd
       0.5225153 -0.12479747 -0.49501792 -0.05235733
0002a0 1c 0f 6b bf a6 bf e8 be 7c 5f a4 bf 9b c0 a5 be
       -0.9181993 -0.45458716 -1.284164 -0.3237351
0002b0 35 d9 24 3f a2 0a 41 bd 2b 56 8f 3e 17 8b 49 be
       0.6439393 -0.04712928 0.27995428 -0.19681965
0002c0 54 02 ca be 01 37 cb 3d 0d e5 e6 3e b7 00 cd 3d
       -0.394549 0.099226005 0.45096627 0.10009902
0002d0 a0 e4 02 bf 2c 28 bb be 53 ce 1d be 5e 08 67 3c
       -0.51130104 -0.36554086 -0.15410738 0.014101116
0002e0 70 71 95 3e 49 ed 9e 3e 56 9d 3f bf d6 62 ee bd
       0.29188108 0.3104041 -0.7484945 -0.11639945
0002f0 57 b9 95 bd ca 7b 87 be 0b 6c e6 be a6 44 31 3d
       -0.073107414 -0.2646163 -0.45004305 0.04327836
000300 1c 73 96 3e f8 f0 8e 3e ab 2c 2a bf 19 cc bb be
       0.29384696 0.2791822 -0.6647441 -0.36679152
000310 e1 74 20 3f c5 d1 4e 3f d8 78 8f be f7 bc d0 be
       0.62678343 0.8078883 -0.28021884 -0.4076917
000320 20 fc d8 3d 8f 5b ee 3d 6a 15 1b 3f 59 df 74 be
       0.10594964 0.11638557 0.6057955 -0.23913325
000330 6b 5f 8c be fa 13 90 be 7f ce d9 be f1 4c 48 3e
       -0.27416548 -0.2814024 -0.42540357 0.19560601
000340 d8 ee 38 bf a6 d3 03 3f cf 48 06 3e 83 6b 9f 3d
       -0.72239447 0.51494825 0.13113712 0.07784178
000350 8c 36 a1 3d 36 5b 87 be 31 98 85 be ac b4 a0 3e
       0.07871732 -0.26436776 -0.26092675 0.31387842
000360 c5 1b ad be f1 0d b0 be 83 e7 a1 be cc 70 d5 bc
       -0.3381025 -0.34385636 -0.31621942 -0.026054762
000370 ef 50 1d be 78 73 20 bf f9 d9 3c be 97 77 e2 be
       -0.15362905 -0.6267619 -0.18442525 -0.44231865
000380 96 a2 94 3d 4e c5 87 3e 01 03 8b be 3e f7 f7 be
       0.07257573 0.2651772 -0.2715073 -0.48430818
000390 b9 1d bc bd f3 af d9 bd 43 94 36 bf da 67 09 bf
       -0.09185357 -0.10629263 -0.7131998 -0.5367409
0003a0 55 3d fd 3e 2e a6 b7 be 7e e2 8b 3f f2 0a 25 bf
       0.49460855 -0.35868973 1.0928495 -0.64469826
0003b0 90 c8 66 3e 5e c4 7c bf dc 02 42 3e 8b 4b 8d 3e
       0.22537446 -0.9873713 0.18946403 0.27596697
0003c0 1e a0 16 3e 09 a7 85 bd 9d 48 ab bb e9 aa 13 bf
       0.14709517 -0.06526 -0.005227162 -0.57682663
0003d0 06 19 e1 3d 73 5b 30 bf 69 65 4f 3d f0 77 43 3f
       0.10991101 -0.6888954 0.05063382 0.76354885
0003e0 3b e6 d3 be 49 82 c4 3d 0b f1 c3 be 79 39 a2 bd
       -0.4138659 0.095951624 -0.3826984 -0.07921118
0003f0 72 3e 35 3f 18 e1 fb be d9 1e 9a 3f b3 76 d7 3b
       0.7079841 -0.4919517 1.2040664 0.0065754293

layer_pro.2.bias f4 [150]
000000 3d e1 ca bf f8 de f7 bd 30 ce 9f bf e7 3c 90 bf
       -1.5849987 -0.12103075 -1.2484798 -1.1268586
000010 22 be eb bf a1 83 35 bf 95 96 9a bf ce 8f 18 c0
       -1.8417399 -0.70903975 -1.2077204 -2.3837771
000020 fd fb 7d bf 4a f8 93 bf 46 14 8e be 62 c1 47 bf
       -0.9921263 -1.1560147 -0.27749842 -0.78029454
000030 aa dc 08 c0 14 0c cf be 09 a8 30 c0 86 d6 05 c0
       -2.1384683 -0.40438902 -2.760256 -2.0912185
000040 6d 7b ba bf fe 3f a9 be c7 33 70 bf a7 e3 7f bf
       -1.4568917 -0.33056635 -0.93829006 -0.99956745
000050 d4 4f fa 3d be 36 21 c0 18 67 29 c0 91 7f 7b bf
       0.12222257 -2.5189662 -2.6469173 -0.98241526
000060 bd 67 87 bf 94 ca bc bf 9b 34 84 bf 3c 61 23 3e
       -1.0578533 -1.4749322 -1.0328554 0.1595506
000070 89 d2 e8 bf d7 97 77 bf 71 56 54 bf 53 e0 3d be
       -1.818925 -0.96716064 -0.829444 -0.18542604
000080 e5 86 d7 bf d5 96 2f bf 9b 63 b2 be 96 b0 93 bf
       -1.6838042 -0.68589526 -0.34841618 -1.1538265
000090 35 46 9f 3e e3 7f b8 bf ec 4f 83 bf 9c de 91 bf
       0.3110825 -1.4414028 -1.0258765 -1.139606
0000a0 a6 c6 9e bf 16 cf 73 bf b7 25 ab bf 0c 94 14 bf
       -1.2404373 -0.95237863 -1.3370885 -0.580384
0000b0 30 4b 80 bf 6b 35 02 c0 8b 95 18 c0 c5 84 f0 bf
       -1.0022945 -2.0345104 -2.3841274 -1.8790518
0000c0 52 f9 8b bf de aa cc bf 00 a3 2e bf cd 26 31 bf
       -1.0935462 -1.5989645 -0.6821747 -0.6919983
0000d0 03 df 4d be 9b 1b c9 bf 79 78 16 bf 81 84 cd bf
       -0.20104603 -1.571155 -0.58777577 -1.6056062
0000e0 18 f3 c0 bf 15 dd 63 bf 8c d8 8c bf a6 00 f3 bf
       -1.5074186 -0.8900922 -1.1003585 -1.8984573
0000f0 73 b6 cc bf 9e c0 36 bd b5 d2 02 c0 45 3b 77 bf
       -1.5993179 -0.044617288 -2.0441105 -0.96574813
000100 b6 81 cc bf 42 0a dd bf 35 22 82 bf c7 5d 8b bf
       -1.5977085 -1.7268755 -1.0166689 -1.0887994
000110 cb 3d 46 bf cf 98 e6 bf ed 78 ac bf 4e 46 89 bf
       -0.7743804 -1.8015383 -1.3474404 -1.072458
000120 56 ba 25 3f 87 96 11 c0 07 6a 04 c0 8b ee af be
       0.6473745 -2.2748125 -2.0689714 -0.3436168
000130 8c e7 f1 bf 49 e7 84 3e 0e 26 8a bf b3 a3 cb bf
       -1.8898787 0.25957707 -1.0792863 -1.5909332
000140 14 1d 3f bf 3c 24 fb bf 5f d6 7f bf 01 28 c2 bf
       -0.74653745 -1.9620433 -0.9993648 -1.5168458
000150 44 8f 8d be 5f 0b bd bf 82 df ad bf 14 a6 bb bf
       -0.27648365 -1.4769095 -1.3583834 -1.4660058
000160 06 a0 4a bf e6 a2 c0 bf c2 3d 95 be 34 87 fa bf
       -0.79150426 -1.5049713 -0.2914868 -1.9572511
000170 91 de 1a c0 d9 8a e7 bf d1 55 0c 40 1d c4 b9 be
       -2.4198344 -1.8089248 2.1927378 -0.36282435
000180 c5 7f 15 c0 f9 f2 c3 bf 39 bc 29 c0 99 8c 4b 3e
       -2.3359234 -1.5308524 -2.6521132 0.19877852
000190 ee d5 d3 bf 0d 91 a0 bf ac fa db be fb d8 f5 bf
       -1.6549661 -1.2544266 -0.42964685 -1.9206842
0001a0 73 cf ef bf 02 17 a8 bf be 59 b3 bf ed 3e 10 bf
       -1.8735183 -1.3132021 -1.4011762 -0.5634602
0001b0 68 c7 22 c0 85 bc 0b c0 be ac a4 bf e2 81 01 bd
       -2.5434208 -2.1833813 -1.2865217 -0.031618007
0001c0 bf bf d6 bf 95 d9 13 c0 13 27 04 bf 38 35 8b bf
       -1.6777266 -2.3101552 -0.5162212 -1.0875616
0001d0 02 a2 ec bf ae c0 7f bf 46 58 b7 bf 3e dc f7 bf
       -1.8486941 -0.9990338 -1.4323814 -1.9364088
0001e0 8e 40 ab bf 8c 14 38 bf 5a 93 1d be b5 a1 f2 bf
       -1.3379076 -0.7190635 -0.15388241 -1.8955599
0001f0 d8 28 54 bf 97 d0 ed be 17 40 09 c0 7d ca 69 bf
       -0.8287482 -0.46448204 -2.1445367 -0.913246
000200 7b de 5b be 1f 01 88 bf d1 a1 d5 bf b1 5d e6 bf
       -0.21471588 -1.0625342 -1.6690007 -1.7997342
000210 05 ef a2 bf 9d d4 02 c0 c0 91 8b bf 89 e4 8f bf
       -1.2729193 -2.044227 -1.0903854 -1.1241618
000220 e2 4a a8 bf d4 ca a0 bf 00 06 6a bf dc 2b 87 3e
       -1.3147852 -1.2561898 -0.91415405 0.2640065
000230 89 53 16 c0 72 26 c7 bd cb 70 ad bf a8 e9 01 bf
       -2.3488486 -0.0972413 -1.3550047 -0.50747156
000240 e8 57 be bf ca 39 b2 bf 92 3f 03 c0 00 d7 f2 bf
       -1.4870577 -1.3923886 -2.050755 -1.8971863
000250 6c ea 86 bf 49 71 8b bf
       -1.054029 -1.0893947

layer_pro.4.weight f4 [100, 150]
000000 51 80 34 3f f4 01 61 bd ac 45 03 bf fd 57 87 3d
       0.70508295 -0.054933503 -0.51278186 0.06608579
000010 5b 8f 06 be 7e e9 d0 bb 17 7b 03 3e e0 0c 1c bd
       -0.13140623 -0.0063754907 0.12839924 -0.038098216
000020 e2 da a2 be 27 d0 15 be 0c 04 08 be 2d 15 46 bb
       -0.3180762 -0.14630185 -0.13282794 -0.0030225024
000030 ad dc aa 3d 85 bb 9b be 3b 87 b9 bc a2 d2 46 bc
       0.08342872 -0.30416504 -0.02264749 -0.01213518
000040 ac a7 d6 be 5e b1 14 bd 9e 81 41 bf 9e 2f 7b 3e
       -0.41924798 -0.036301963 -0.75588405 0.24529883
000050 40 81 98 bd 16 3f 8e be 40 9a 98 3e 42 46 d2 3d
       -0.074465275 -0.27782506 0.29805183 0.10267307
000060 35 37 77 3d 00 39 46 3d 8c c3 4c 3e 2c 93 b7 3e
       0.060355384 0.048394203 0.1999647 0.3585447
000070 6d fc 16 be dc 71 03 3f 58 ef 30 3e 8a 41 a6 bd
       -0.1474473 0.5134561 0.17278802 -0.08117969
000080 de 0f 2d bc 00 59 60 3e d1 c8 be bc ea cb 74 3e
       -0.010562865 0.21908951 -0.023289116 0.23905912
000090 28 69 f0 bd 90 6e 10 be d3 58 8d be 0f 04 76 bd
       -0.11738807 -0.14104676 -0.2760683 -0.060062464
0000a0 4d 40 eb 3c 1c 85 0f 3d ff db 4a be c4 1f b2 bd
       0.028717184 0.035039052 -0.19810484 -0.08697465
0000b0 de c5 f4 3d ad 1a b6 bd e9 7d d7 3e 38 49 a2 3e
       0.11951803 -0.08891807 0.4208825 0.31696486
0000c0 1c 55 55 bd 52 dc 20 3c 14 9e 73 be 15 4a 33 3e
       -0.05208312 0.009818153 -0.23790771 0.17508729
0000d0 2d 53 7b 3c ef 21 a2 3c f9 4e 2d be da 8c 1d bd
       0.015339655 0.019791571 -0.16924657 -0.038464405
0000e0 92 3e d7 3d f8 a1 bf 3d 96 97 8e bd ba 69 73 bd
       0.10509981 0.09357065 -0.069625065 -0.059427
0000f0 0d 81 a5 3d 01 54 d1 bd f6 bf 46 3e ef 8b 28 3e
       0.08081255 -0.102211006 0.19409165 0.1645963
000100 05 2c 66 be af c0 46 3e 2f 36 a6 bd ec a4 21 be
       -0.2247773 0.1940944 -0.081158035 -0.15785569
000110 da fe af be 1c 88 61 bd 35 0d b0 3d 02 9b e7 3e
       -0.34374124 -0.055061445 0.08596269 0.4523545
000120 87 70 ff 3d d0 f3 53 3c ab eb 0c 3f eb a5 c3 bd
       0.12472635 0.012936547 0.550471 -0.09553131
000130 ea 0a 89 3d 42 8b 38 be 58 d1 0f 3f 50 28 64 3b
       0.06691535 -0.18021873 0.5617881 0.0034814067
000140 33 f7 ab 3e 2a 7e 2a bc 74 73 0a bf 16 19 a0 3e
       0.33587036 -0.010406056 -0.5408242 0.3126914
000150 75 b7 f3 bd 36 68 1f 3e 48 29 79 be ca 35 e4 3e
       -0.11900226 0.15567097 -0.24332154 0.44572288
000160 7a 0f bd 3d a5 62 05 bd 63 56 1f 3e 6c 89 11 be
       0.092314675 -0.032564778 0.15560298 -0.14212579
000170 de 15 84 be 6f 32 d9 be f6 64 8d 39 39 c1 f1 3c
       -0.25797933 -0.4242129 0.00026968837 0.029511081
000180 f6 2f d5 bd a0 38 17 be f3 cc eb 3e 10 8e e5 be
       -0.104095384 -0.14767694 0.460548 -0.44834948
000190 52 52 ad be 20 02 26 bf 07 4e f2 bc c3 00 37 3e
       -0.33851868 -0.6484699 -0.029578222 0.17871384
0001a0 5b b0 cd be c7 bf 76 bd e7 ea 7c bd aa c7 28 3e
       -0.4017361 -0.060241487 -0.061747458 0.16482416
0001b0 cf 7a 03 3f 6d f0 c9 be 6f 8f 85 3e cb 44 9a bd
       0.51359266 -0.39441243 0.26085994 -0.075326525
0001c0 5a cc 10 3e 1d 16 4a be b8 ad 0e 3e da fa 62 be
       0.14140454 -0.19734998 0.13933456 -0.22166005
0001d0 d0 fa 01 bf 05 4f a1 3d a6 4e 61 bc da 32 e7 3e
       -0.50773335 0.078764 -0.013751661 0.45155984
0001e0 86 98 ff 3c ed 2c 6e 3e d6 1f aa 3c ce 95 91 3e
       0.031200659 0.23259325 0.020767134 0.28434604
0001f0 e5 5d 0c 3e b4 57 32 3e 35 81 d0 bd 27 ad af 3e
       0.13707693 0.17416269 -0.10180894 0.34311792
000200 3c f3 00 be 59 b7 34 be 3f c4 7f be 47 f2 6e 3e
       -0.12592787 -0.17648067 -0.24977206 0.23334609
000210 c7 7e a7 be 93 fb 86 3d e2 8b 88 3d eb 38 cb bd
       -0.3271391 0.06590953 0.066673055 -0.099229656
000220 d6 f0 b8 3d 67 f4 9f 3e f0 27 bb 3d 25 8f c2 3c
       0.09030311 0.31241152 0.09138477 0.023749897
000230 b7 25 0c 3f d1 ea 28 3d da 9f 2b be fe 72 a5 bd
       0.5474505 0.041239563 -0.16760197 -0.08078574
000240 f7 1e ed 3e e2 20 fe be 14 22 50 be 12 1f e4 be
       0.46312687 -0.49634463 -0.203255 -0.44554955
000250 95 c0 09 bc 3c c6 d6 3e ab 57 0a be dd 47 aa bc
       -0.008407732 0.41948116 -0.13510005 -0.02078622
000260 b5 84 6f 3d 8d dc 33 3c d8 fe df 3d a9 42 9b 3d
       0.05847617 0.010977876 0.109372795 0.07581074
000270 08 ef b4 bd 1f bc ba 3d a4 66 e9 bc be 83 89 bd
       -0.08834654 0.091179125 -0.028491326 -0.06714581
000280 ea 76 90 3d c9 09 3d bd 09 94 1d bc 7d ca 25 bc
       0.07053931 -0.04615191 -0.009617814 -0.010119078
000290 08 a9 18 3a 86 c0 11 be 95 41 d1 bd 40 4c 3b 3d
       0.00058235275 -0.14233598 -0.10217587 0.045727015
0002a0 5b 79 c6 bd 8e e1 43 bb df d3 58 bd 1e 64 24 be
       -0.096911155 -0.002988908 -0.05293643 -0.16053817
0002b0 75 15 8f 3d 50 88 9c bc c3 5b 79 3d aa e1 9b bd
       0.069865145 -0.019107968 0.060878526 -0.076114014
0002c0 af dc 67 bd 7a 6c 62 bd f3 9f c7 3d f6 92 0d be
       -0.056606945 -0.055279233 0.09747305 -0.13825592
0002d0 76 b9 5d be 38 f3 84 3d 6b 15 08 3d ac f4 c2 bc
       -0.21652779 0.06491703 0.03322355 -0.02379831
0002e0 30 d5 24 bd 03 1b 7f bd cc 6b fe bd 42 8a 56 bd
       -0.040242374 -0.06228162 -0.12422904 -0.052377947
0002f0 54 30 93 bd a6 25 71 3d 99 f1 62 3d 56 19 99 3d
       -0.07186952 0.058873795 0.055406187 0.074755356
000300 ad 4c eb bd 7e 75 d1 bc 56 17 9e bc d6 30 34 bc
       -0.11489234 -0.02556872 -0.019298237 -0.0109979715
000310 c5 ba 77 3e e8 bc 08 be 31 19 a4 3d 0d 19 1f be
       0.2419234 -0.13353312 0.080126174 -0.155369
000320 a7 33 44 3e 89 03 e5 3c 00 2c 0f be e3 3c f8 3a
       0.19160329 0.027955787 -0.13981628 0.0018939044
000330 bd fb ab 3d 79 ef 49 bd 3b 02 02 3e 24 1e 0f 3e
       0.08397625 -0.049300645 0.12696163 0.13976341
000340 08 32 86 3d 8e fb c8 bc 28 f1 e2 3c 63 71 b6 3c
       0.065525115 -0.024534013 0.027702883 0.022270864
000350 86 06 38 be c3 1d a3 bd 82 42 aa bd e0 1b f6 3c
       -0.17971238 -0.07964661 -0.083134666 0.030042589
000360 b8 ed 47 3e 1d 99 1a 3d 1e 45 a6 3d cd 15 c0 3c
       0.19524276 0.037743676 0.08118652 0.023447895
000370 65 78 eb 3d 86 e5 be 3c 97 02 8d 3d 35 b5 40 3e
       0.11497573 0.023302805 0.068852596 0.18819125
000380 92 37 83 3d 6b 9e e6 bc 32 14 e9 3d 1c 10 1b 3d
       0.064070836 -0.028151711 0.11380805 0.03785716
000390 ba d5 46 bd c6 06 c7 bc 49 2e 06 3e e9 03 26 be
       -0.04854367 -0.024295222 0.13103594 -0.16212429
0003a0 45 0a df bd e8 13 e2 3d a2 0c a5 3c bb 70 1e 3e
       -0.10890631 0.11038953 0.020147625 0.15472691
0003b0 da 79 fc bd 33 f4 97 3d 5b 5f aa 3d a5 58 c4 3c
       -0.12327929 0.07419624 0.08318969 0.02396805
0003c0 c0 e6 79 bb aa c5 08 be 2a 79 30 3d 94 07 48 bd
       -0.0038131922 -0.13356653 0.0430843 -0.048835352
0003d0 64 01 b8 bd f3 0f 8f 3b 35 38 30 3e 6a 0d 21 3e
       -0.0898464 0.004365915 0.17208941 0.15727773
0003e0 c9 5f 5c 3d 4c b5 58 3e 4b a8 75 3c 16 4f a0 bd
       0.053802285 0.2116291 0.014993737 -0.078275844
0003f0 1a d6 0a 3c e4 6a 08 3d 0e b4 f7 3d 20 b2 47 3d
       0.008473897 0.033305064 0.120948896 0.048753858

layer_pro.4.bias f4 [100]
000000 5a 15 fd 3d ec 36 11 3d c8 66 e0 3f 8b ef e3 bd
       0.12357588 0.03545277 1.7531366 -0.111296736
000010 02 a3 ea 3c b4 14 ff bd 8c 2d a5 3e aa 3a 3c bd
       0.028642181 -0.12455121 0.32261312 -0.045954384
000020 2f ca 04 3d b2 88 ba 3d 5b 66 68 be 6f 4e 07 3e
       0.03241938 0.09108104 -0.22695296 0.13213514
000030 fd 71 f7 bd 1d 6a 69 bd 81 ee 71 bd 0f 6d 1f 3c
       -0.120822884 -0.056985963 -0.059065346 0.009730591
000040 3f 80 f7 3d fc 85 f7 bd fe a4 a5 bd 25 a6 61 3e
       0.12085008 -0.12086102 -0.080881104 0.22036035
000050 28 d8 d1 bd 5e 27 6e bd 88 f9 31 bd 2a 03 d3 3b
       -0.10246307 -0.058143012 -0.043450862 0.006439586
000060 21 87 9f bb b7 d1 ea bd 6b f8 26 be 45 73 24 be
       -0.0048684035 -0.11465781 -0.16305701 -0.16059597
000070 12 31 63 bd db 58 57 be 7f eb 18 3e 35 e0 4d 3e
       -0.05546672 -0.2102999 0.14933585 0.2010506
000080 30 95 83 be bd 03 5f bd 62 82 83 bd 9d 95 20 3e
       -0.2569976 -0.054446924 -0.06421353 0.15682073
000090 3c 95 a8 3d 04 03 fb 3d 93 c3 99 3d 34 cf 91 3d
       0.08231589 0.122564346 0.07508006 0.07119599
0000a0 02 23 e6 bd 79 3f 55 3e fc 16 c3 3c f5 a6 76 3e
       -0.11237146 0.20824994 0.02381467 0.24087127
0000b0 f8 f7 db be 39 1b c4 3d 2c d5 71 3d aa 81 7f bd
       -0.42962623 0.09575505 0.059041187 -0.062379517
0000c0 15 ae f1 3d 96 b5 f6 3e 5d e5 f9 3c b7 24 0e ba
       0.11800782 0.48185414 0.030504877 -0.0005422341
0000d0 cf c2 fb bd b4 fa 7f 3e 09 23 15 3f 61 93 f7 3c
       -0.12293016 0.2499798 0.58256584 0.030221643
0000e0 fe 27 b1 3d f9 80 3b be fb 05 1f 3e 07 b9 ed bd
       0.08650206 -0.18310918 0.15529625 -0.11607557
0000f0 dd 39 da 3c 94 91 20 3e f7 8b 22 be 9e f1 b4 bc
       0.02663892 0.15680534 -0.15873705 -0.022087868
000100 6f 12 55 3e 58 52 d8 bb 06 3f e7 3c 6d b6 3a be
       0.20807813 -0.006601613 0.028228294 -0.18233652
000110 ac 8a e0 3a 2e ae d9 bb c8 83 5c 3e 10 eb 03 3e
       0.0017131171 -0.0066430783 0.21534646 0.12882638
000120 18 0b 25 3e 66 51 17 bc 08 85 29 be e6 73 ab be
       0.16117513 -0.0092357155 -0.16554654 -0.3348686
000130 38 4c b6 3d c6 45 97 3d 24 c4 6d 3d 95 8b d9 bc
       0.08901256 0.07386355 0.058048382 -0.026555816
000140 c0 3c 87 3d 02 e5 f4 bd ec 1d 24 be e8 e5 4a 3e
       0.06603384 -0.11957742 -0.1602704 0.19814265
000150 c1 67 bb bd 0c 64 5e bd ec b8 52 3e 63 2d c2 3d
       -0.09150649 -0.05429463 0.20578355 0.09481313
000160 e4 3e 85 bd 6c b4 7b bb c1 f4 c2 be ca 10 01 be
       -0.06506136 -0.00384071 -0.38077357 -0.12604061
000170 1a 39 80 bc fe eb 10 bd 65 68 90 3d 3c 3a cd be
       -0.015652228 -0.03538131 0.07051162 -0.40083492
000180 27 c6 0d 3e 8f 4e 8b be 23 56 35 be e9 10 e3 3d
       0.1384512 -0.27208373 -0.1770864 0.1108721
