source/contrast_learning/NPINTER4_model.ckpt (torch, 919131 bytes, 12 tensors)

layer_lnc.0.weight f4 [220, 256]
00000000: d84e 603e 979b d43f 01c7 5b3e 1c43 923e
00000010: 3e00 d23c 90d7 5240 df18 bebf de75 ad3f
00000020: f176 f63f 96ee 03bf 4594 b43f c0e5 cebf
00000030: d9a3 093f 1fa7 f9be 1be4 06bf f48f 9e3e
00000040: a2ce 933f 53ae f03f 4d96 6fbf e5c4 67bf
00000050: 622d 8abf fedf f13f 5d9b 0bbf 2f40 adbd
00000060: 8489 5bbf e65f dd3f 75c3 1cbe 853c 173d
00000070: d39b b0be 776a 8f3e f243 243f a81a 13c0
00000080: 25fc c13f 97c6 653f fc94 4440 12cb f93d
00000090: a19b 79bf 1133 df3f 894a e6be 2a71 173f
000000a0: b5d2 38bf 99af a13f 1477 653f 38b7 0040
000000b0: b54c dcbf 2fc9 c0bf 3d92 c3bf b3a8 bb3f
000000c0: 5b7d 9c3f f4d9 b0bf e1fb d53d 776b 4f3f
000000d0: 6058 f2bf 0951 6abd b05c 0ac0 a3e5 b43f
000000e0: 1a85 5fbe 7e82 3bbf 5af2 823f 27fc 1cc0
000000f0: 821f 6b3f da13 57c0 8bcd c73f 893f 15be
00000100: 1347 febe 9d05 fb3f 1861 56bf c730 a73f
00000110: 296b df3f 1dad d9be 6039 c23e e7ec eebe
00000120: 06c8 783f 8aa6 0a3f 64f3 12be 5efa 38bf
00000130: 28e2 533f 0f2d dbbf 8cdf b3be 31cf a7bf
00000140: ee4f 5bbf 311b 393f afd2 a93f e8f9 1fbf
00000150: 85bd e23f c0a9 553f 1a87 813e 1bc0 4a3f
00000160: c002 3fc0 2e98 0940 441e 6fbf 4591 c53f
00000170: 6b4c 9a3f 5281 c63e 4289 303e f415 663f
00000180: 8e66 94bf 095b 99bf cb21 97bf 8520 ee3f
00000190: fed9 1dbf 4246 0240 1af3 4d3e 3bb5 34bf
000001a0: bf90 4a3f 1e9a a53e b419 d43e ef49 85be
000001b0: fb0b 3f3f ff0e 683f 4827 acbe 2ea3 0ebd
000001c0: 3a3a a23f 74e8 a0bf 6302 573f 50ef ed3d
000001d0: a0d7 1a3f c5b4 b53f ac6c ce3f c3f9 b53f
000001e0: 6cef ef3f 27c4 c03f 428c c1be 84e3 e1bf
000001f0: 4666 00c0 45c6 f73f bcb9 503f abee 48bf
00000200: b0a8 cc3e 25f4 9bbf ab8b 0f40 bcba cbbf
00000210: 0660 8abd 12a5 cdbf 907f d43f 016b 68bf
00000220: e2ae bb3f b978 dd3e 719a 7e3f 4504 c0be
00000230: a973 a6bf ae9f cd3e 3911 44bf 07bf b73f
00000240: cbdb 323f f50f bdbf 3bc5 8f3f 2c12 31bf
00000250: b69b 8dbf 804b de3e 9341 b53e 0561 913f
00000260: 5184 2040 9b4d 43bf 2579 903f 25f1 8cbf
00000270: a89f 27be 8b54 6a40 a5b6 30bf 580f 883f
00000280: 5f2e e7bf f8f7 4bbf 37ed 803f ed1f 5e3f
00000290: 6e1d b93f 3ce9 8cbf 3d70 2f3e 71e2 1340
000002a0: b734 703f 8ef2 883f 2938 513f 31b3 debe
000002b0: 7bca 313f 3a38 25bf fb32 b03e ae18 0640
000002c0: b2f0 e63f 3d7e 23c0 dd59 4f3f b957 9abf
000002d0: 0fff 62c0 605a 993f 6a6f a93e ef9f 053f
000002e0: ef50 54c0 526a 223d 1401 f2be cd3f 61bf
000002f0: c8b7 0a40 1d60 6f3f 0298 a93f 335d c53e
00000300: 52e3 f83f e4a5 c43f 7d25 413f 97f6 0bbe
00000310: e78a eabf c1d3 21bf 3fff 58be 9cff a3bf
00000320: b31d 933f f3d1 2a3f 19e2 c43f 2afd 973e
00000330: ad09 6e3f 31b4 0f3f 2754 24bf 95da 1ebf
00000340: 6642 b2be f790 8c3e 1835 0bc0 813a b2bf
00000350: 4d7b ac3f 7635 a53f 7909 9abe 7634 c13e
00000360: b1de f3be 2d99 e6bf d85e c33f 10df 4d3f
00000370: 9da7 123f 84f0 663f 9d67 613f ffcc 0d3e
00000380: 9abd 9e3f e221 31bf c544 31bf fa8c 94bf
00000390: faeb 913f f810 89bf 4007 a43f 4040 483f
000003a0: 2f47 bebf aa38 743c 9db2 933e a735 a23f
000003b0: e274 833e 8e39 81bd 778d 18c0 52c4 e93e
000003c0: 5469 d13e d7af b73e f96f a73f 430b 08bf
000003d0: d8c2 d33e a12f 993e 267d 68be c616 91bf
000003e0: e05e 0c3f 49ce e7bd 91d0 04bf 3454 0d40
000003f0: a9ca 5a3e 5fb4 0bbe c8aa 03bf e479 653f
0.21905077 1.6609982 0.21462633 0.28566825 0.025634881 3.294407 -1.485134 1.3551595
1.9255048 -0.5153593 1.4107748 -1.6163864 0.53765637 -0.48760316 -0.5269181 0.30969203
1.1547434 1.88032 -0.93588716 -0.9053481 -1.07951 1.8896482 -0.5453394 -0.08459508
-0.8575671 1.7294891 -0.15308936 0.03692295 -0.34493884 0.28010914 0.64166176 -2.298502
1.5155073 0.8975615 3.0715933 0.12196936 -0.97503096 1.7437459 -0.4497874 0.5915705
-0.72196513 1.2631713 0.89634824 2.0111828 -1.7210909 -1.5061396 -1.5279003 1.4660858
1.2225755 -1.3816514 0.10448433 0.81023353 -1.893322 -0.057206187 -2.1619072 1.413258
-0.21828118 -0.7324599 1.023021 -2.4528902 0.9184495 -3.3605866 1.5609602 -0.14575018
-0.496636 1.9611088 -0.83741903 1.3061761 1.7454578 -0.42514887 0.379344 -0.46665117
0.9718021 0.5416037 -0.14350659 -0.7225703 0.8276696 -1.7123126 -0.3513149 -1.3110105
-0.8566884 0.72307116 1.326742 -0.624907 1.7714087 0.8346214 0.25298387 0.7919938
-2.9845428 2.1499133 -0.93405557 1.5434958 1.2054571 0.3877054 0.1723986 0.8987725
-1.1593797 -1.1980907 -1.1807188 1.8603674 -0.61660755 2.0355382 0.20112267 -0.70589036
0.79127115 0.32344145 0.4142586 -0.2603297 0.74627656 0.9064788 -0.3362372 -0.03482359
1.2674019 -1.2570939 0.83988017 0.11617911 0.6048527 1.4195791 1.6126914 1.4216846
1.8744941 1.5059861 -0.3780232 -1.7647557 -2.0062423 1.9357382 0.8153341 -0.7848918
0.39972448 -1.2183882 2.2428997 -1.5916362 -0.06756596 -1.6066 1.6601429 -0.90788275
1.4662745 0.43256167 0.9945441 -0.37503257 -1.3004047 0.40160888 -0.7658878 1.4355172
0.6986663 -1.4770495 1.1232065 -0.69168353 -1.1063144 0.43416977 0.35401592 1.1357733
2.508076 -0.7629029 1.128697 -1.1011091 -0.16369498 3.66141 -0.69028693 1.0629683
-1.8061026 -0.79675245 1.0072392 0.86767465 1.4462106 -1.1008677 0.1713266 2.310696
0.93830436 1.0699022 0.8172632 -0.43496087 0.69449586 -0.6453892 0.34413895 2.0952563
1.8042204 -2.55458 0.80996495 -1.2058021 -3.5468175 1.1980705 0.33092815 0.52197164
-3.3174398 0.039652176 -0.47266448 -0.8798798 2.167467 0.9350603 1.3249514 0.38547668
1.9444373 1.5363126 0.7544783 -0.13668285 -1.832364 -0.63213736 -0.21191119 -1.2812381
1.1493438 0.6672661 1.53815 0.29685336 0.92983514 0.56134325 -0.64190906 -0.6205228
-0.34816283 0.2745435 -2.1751156 -1.3924104 1.3475128 1.290694 -0.30085352 0.37735337
-0.47630838 -1.8015496 1.5263319 0.8041849 0.5728701 0.9021075 0.88048726 0.13847731
1.2401612 -0.69192326 -0.6924556 -1.1605523 1.1400139 -1.0708303 1.2814713 0.7822304
-1.4865474 0.014906088 0.2884721 1.2672623 0.25675112 -0.06309806 -2.3836343 0.45657593
0.4090067 0.35876343 1.3081046 -0.53142184 0.4135959 0.2991915 -0.2270399 -1.1335075
0.5483227 -0.11318643 -0.5188075 2.2082644 0.21366371 -0.13643025 -0.51432467 0.89639115

layer_lnc.0.bias f4 [220]
00000000: 2037 0d3f f612 ef3f ce87 9ec0 6c2f bb3e
00000010: 2a79 543f e82c df3f 7b52 f83f fe65 42bf
00000020: d62d 3240 2880 17bf d3fd b7c0 d86a ad3f
00000030: e649 0f40 7c1d bdbf fd9c e33f 5832 8bc0
00000040: 3cc4 30c0 6643 4ac0 a62a 2840 8d1f d93e
00000050: c1db 2d41 a3fc 6540 548c 6e3f 2b81 9c3f
00000060: 282e 18c0 1fdf df3f 689e 8ebf a47e 903f
00000070: d094 c6c0 e8f6 96bf 87e4 163e d644 cebf
00000080: 52c0 7140 8d4b 3abf 4927 f4bf 592a fd3f
00000090: b405 81bf 66b7 aabe b608 3fc0 9812 b9bf
000000a0: 0001 cfbf e679 1540 c831 a13f 78a9 b6c0
000000b0: 5950 22c0 48cc 78bf df19 613e 198a e43f
000000c0: 5ca2 9ebe 9271 0f3f 2d8d 91bf 3c0f 8abf
000000d0: 7b56 bf3f 0be7 4340 70d6 993f c195 22c0
000000e0: 4d56 ff3e b6dc e53f 4c9e 28bf 45a6 8dc0
000000f0: d37b 403e 3565 40c0 4199 41bf 01fb 0cc1
00000100: fdd8 ad3d 335f 0c40 1736 903f e800 dbbf
00000110: 06b2 00bf 91ba 8240 90ca d63f e5b6 1cc0
00000120: 4925 bec0 9f53 febf cb8c a840 e22a a43f
00000130: 036a 953d 20ca ea3f ffc2 70c0 5ef9 6dbf
00000140: b650 b43f b393 5dc0 d470 323f 0b63 f3bf
00000150: 81be 9c3f f3ed c1bf cf92 6e3f c946 0740
00000160: 6c98 f7bf 82fc 5b3e 590c d03d 967f 98be
00000170: 7fb9 cabf 61b5 0fbe e885 c4bf 6a64 7c3f
00000180: 37ab ffc0 2d56 52bf 9f3d 273f 7745 33bf
00000190: 389d 81bf b7da 2a40 66c7 6ec0 7765 1fc0
000001a0: e0cb 13bf c889 52c0 815f 0cc0 203f 0cc0
000001b0: 6891 f53f a7c0 61bf 6b74 3dc0 34a5 80c0
000001c0: 01d9 3540 f79a 8cbf 25bc 8240 6e71 bcbe
000001d0: b1fd 40bf 70cb 423f 1f98 aac0 f79a dcbd
000001e0: 6465 853f 5d11 97c0 83d3 e5bd d3be b03f
000001f0: c902 2ac0 285e 0940 e085 f5bf 881e 0c40
00000200: 09e8 5240 84aa e53f 7255 3540 b127 f63f
00000210: dfb9 e73f 2827 2abf e340 fd3f a6de 993e
00000220: aa60 80be ebe9 c940 d0af 3740 3a29 e23f
00000230: 2759 be3e 77ae 083f 6e35 28bf 7cf4 32c0
00000240: 6612 213f 392d b4bf 1610 e63f fd44 4240
00000250: f8ff a03f 4d07 86c0 3808 9dc0 5e22 a43f
00000260: bb2f 573f 30fe be3f 84ec 20be 951d 923f
00000270: 30f4 0d40 5d3c ccbf 847a ba3f d4f0 72c0
00000280: 22c8 6ebf 89c7 c43d 7318 fd3f f1dc c1bf
00000290: 4258 e33f 5ac6 b7c0 66bf 31c0 065a 09c0
000002a0: fab7 9740 1298 5cc0 6173 cc3f bb71 073f
000002b0: a52c 4cc0 e26e a9bf 4180 acc0 9890 4ec0
000002c0: 3751 7640 b452 c63f c54c 8bbf 1ecc 1a3f
000002d0: ae9b 2f3e 2238 7340 9426 6bc0 d990 423f
000002e0: 5016 923e ac07 58be 90bd 88c0 ad86 43c0
000002f0: 3780 aec0 b587 3dbf 8085 67c0 4300 10bf
00000300: 0b28 8940 b7bf a7bf 243c 95c0 c6fa a0bf
00000310: 995e 8fc0 e7d7 293e 14ea 87c0 805f 1d3e
00000320: 08ea db3f 99bf 8a40 1587 44c0 f678 d53f
00000330: 8aad 3cbe eeaf f9bf 9267 e1bf 8737 f2bf
00000340: cdf6 b440 babb 19c0 95f8 bb3f 012d 34bf
00000350: f363 4fc0 12bc 2ac0 8c44 5bbf be82 0140
00000360: 50d7 0240 ae83 7540 6ef2 af3f 1330 67bf
0.5516224 1.8677661 -4.9540777 0.36559618 0.8299738 1.7435579 1.9400171 -0.7593688
2.7840476 -0.59179926 -5.7497344 1.3548231 2.2388854 -1.4774623 1.7782284 -4.3498955
-2.7619772 -3.1603637 2.627603 0.42406884 10.866151 3.5935447 0.93182874 1.2226919
-2.3778172 1.7489966 -1.1142092 1.1288648 -6.2056656 -1.17941 0.14735614 -1.6114757
3.7773633 -0.7277153 -1.9074489 1.9778548 -1.0079865 -0.33343047 -2.9849067 -1.4458799
-1.617218 2.335565 1.2593317 -5.708187 -2.536154 -0.9718671 0.21982525 1.7854644
-0.30983245 0.5603267 -1.1371208 -1.0785899 1.4948267 3.0609767 1.2018566 -2.5403903
0.4987053 1.7957981 -0.6586654 -4.4265466 0.18797235 -3.0061772 -0.7562447 -8.81128
0.08488653 2.1933105 1.1266507 -1.7109652 -0.5027164 4.085274 1.6780567 -2.448663
-5.9420514 -1.9869269 5.2671866 1.2825587 0.07295611 1.8342934 -3.7619016 -0.9295863
1.4087131 -3.4621398 0.6970341 -1.90146 1.2245637 -1.5150741 0.9319276 2.1136954
-1.934339 0.21483043 0.10158605 -0.2978484 -1.5837859 -0.14034034 -1.5353365 0.9859072
-7.9896502 -0.82162744 0.653284 -0.7002787 -1.0126104 2.6695993 -3.7309203 -2.490568
-0.57732964 -3.2896595 -2.193329 -2.1913528 1.9185 -0.8818459 -2.9602306 -4.0201664
2.8413699 -1.0984792 4.085467 -0.3680529 -0.753871 0.7609167 -5.3310695 -0.10771745
1.0421567 -4.7208695 -0.11221983 1.3808235 -2.65642 2.1463718 -1.918148 2.1893635
3.2954123 1.7942662 2.8333402 1.9230863 1.8103598 -0.66466 1.9785427 0.3005268
-0.2507375 6.3098044 2.8701057 1.7668831 0.37177393 0.5339121 -0.6570653 -2.7961721
0.629187 -1.4076301 1.7973659 3.0354607 1.2578115 -4.188391 -4.9072533 1.2822988
0.84057206 1.4921322 -0.15715224 1.1415278 2.218029 -1.5955921 1.4568639 -3.795949
-0.9327413 0.09608371 1.9773086 -1.5145551 1.7761309 -5.742963 -2.777307 -2.1461196
4.741208 -3.4467816 1.5972711 0.52907914 -3.190225 -1.3236964 -5.390656 -3.2275753
3.848707 1.5493989 -1.0882803 0.6046771 0.17149231 3.800301 -3.6742296 0.7600227
0.28532648 -0.21096677 -4.27314 -3.055095 -5.453151 -0.740352 -3.6175232 -0.562504
4.286138 -1.3105382 -4.6635914 -1.257653 -4.4802976 0.16586266 -4.247324 0.15368462
1.7180796 4.3358884 -3.0707448 1.6677539 -0.18425575 -1.9506814 -1.7609732 -1.8923196
5.655127 -2.402083 1.4685236 -0.7038117 -3.2404754 -2.667729 -0.8565147 2.0236049
2.0443916 3.836162 1.3745859 -0.9030773

layer_lnc.2.weight f4 [150, 220]
00000000: e618 263e aa5c 8cbf 3b80 66bf 86c6 1a40
00000010: ab5e b5bc 9ce3 cc3f e99c 2a3f 944a 673f
00000020: 6148 343f dc1c c9bf 273f 56c0 dd48 183f
00000030: 4317 4fbf 4c2b 66bf b691 64be ebc7 49bf
00000040: bf42 cabe 21e2 8a3f 203c 52bf 3b71 dfbf
00000050: dbc1 68bf b737 23bf bd7f 33bf 1787 8bbb
00000060: 9739 c6bf e738 233f 430e 813e ae00 7cc0
00000070: 7716 a83e 8317 e43f 328b 3cbf d6d6 4cbf
00000080: 5d7e ec3e 0a32 c03d 98cb c2bf 6bf4 35bd
00000090: b71f 2dbf 6896 373f 0f0c 3dbf ce96 88bf
000000a0: 60b3 2e3f afd0 9ebb 68d0 2d3e 90da 04bf
000000b0: a8c5 d23e da5a b13d c42c 84bf 223a 1b3e
000000c0: b3cf 003d a005 c03e 0c14 123f 2af3 45bf
000000d0: c390 0e3f 0128 d6bf 0f44 70bf 8d7e b0be
000000e0: 62fb 08bf db71 b83d 15f5 a6bf 6a08 a5bf
000000f0: db87 cd3d a7b7 a1bf 2f6e 5cbc 454d 5a3f
00000100: 7d5f 053f a27e 723d 1943 c8bf 2391 ffbf
00000110: daca c6be 4b95 c03e 4006 91bf f64b 0dc0
00000120: 32cb 74bf e2bc ed3e 5591 1b3f d0d7 ed3e
00000130: ae7e 493f 1723 a8bf 6dbe e4be 057e 54be
00000140: 1acf 303e 79ee 03bf e6e2 0dbf c8eb 06bf
00000150: 791d 2abf 8f9d 0ac0 fdef 9fbf 980a cebf
00000160: 30f5 ab3e 98af 053f b6d3 363d a7e0 80bf
00000170: d220 56bf bc25 373f 2dfb be3e b6a0 343f
00000180: d1e0 f4bd df5b eabf ec3a 27bf 4c35 033f
00000190: 0dd7 943e 6fc3 9fbf 70ab 593e c491 43bf
000001a0: 7e49 843e 1d02 923e 86df 77bf 955c b93e
000001b0: 0a9e 2f3f 0125 09c0 abf1 e8bd 3a56 c2be
000001c0: b1d5 e6be 4f99 473d ed86 20be 87b5 933f
000001d0: 4302 c93e fd0c cdbd 57a7 c1bf 5739 36be
000001e0: 9ab9 a43d aa24 383f 9e99 e9bf 9f05 633f
000001f0: 72b0 103f ba93 00bf 444c 82bf ba51 09c0
00000200: c5b3 22c0 fe04 96bf 3eab 71bf de89 273f
00000210: e4dc 0fbf 8c13 8d3f de15 623e de31 29bf
00000220: c093 013f 1d79 69bf f839 b3be 2993 4c3f
00000230: 6f3f 8fbf f664 a5bf 0492 b0bf ac7c cabf
00000240: 4ec8 c8bf 9ca3 1ebd 6897 edbf e552 cf3e
00000250: ef74 41bf 5265 b3bf 7fbb d83f 84e7 453f
00000260: 6f4c e6bf 832c e93e 159c 8abe 984c 0bbf
00000270: b112 7fbe b26a 3b3f 8ab2 2cbf bd89 a1be
00000280: 0860 a03e 7a66 ddbe ef76 efbe 2c6f 8fbe
00000290: aae9 e6bf 750d 25bd dd78 383f b118 7fbf
000002a0: c25f ea3d 5cb7 a83d 87ee a73d 6fcd 1a3f
000002b0: 8de1 cbbe e65a 3a3f 707c a83e eb4f b73d
000002c0: 85de a5be 5974 36bf a23f 273e ca93 a13e
000002d0: 6402 033f 2044 fbbf eaae 7dbf cd77 2dbe
000002e0: ef33 69bf 92ce b03e 6fe8 73bf dcba 09bf
000002f0: 158b f1bf 5e6a a33e f9ca e2be aee3 00be
00000300: b7c2 51bf cf16 87bf 05a4 f1bf 5930 3ebf
00000310: 5489 c0bf a5fa 2ebe 9a3b a9bf cb09 2bbf
00000320: 397e 48bc 0051 0c3f db04 f0bf defb 7240
00000330: 0e37 58be bd51 67be 70c4 313f 28dd 58bf
00000340: 46d7 95bf 6f2e 933f 16fb 0fc0 4342 85be
00000350: ba6f aebf 6b04 0d3f a944 ffbd ac32 873f
00000360: cd80 f1be e204 493f bece c33e a2ff 243f
00000370: 38c2 aebd bdcf 0c3f f026 4dbe a8ec 7f3f
00000380: cec2 903f 0993 26bf cfb8 f7be 8b4b 2bbf
00000390: 6d77 833d bc7b b7be 9a36 0b3f 9fd0 d5be
000003a0: 3f01 0cbd 66f5 4f3f cd17 95bc 395a 89be
000003b0: fcde 563f b979 173f bdd3 0c3f 3939 9abf
000003c0: 978c 51bf d227 28bf a723 5bbf 6f68 7ebe
000003d0: cdd9 00be acfc 86bd c75d 893d 4120 35be
000003e0: ed57 783e 6e66 f93f b4ba 17bf e6e2 d8be
000003f0: f72c 1e3c cc1c 10bf adac bdbe cb69 b2bc
0.16220436 -1.0965779 -0.90039414 2.418367 -0.022139868 1.6006961 0.66645676 0.9034817
0.7042294 -1.5711932 -3.3476045 0.5948618 -0.8089487 -0.89909816 -0.2232121 -0.78820676
-0.39504048 1.0850259 -0.82122993 -1.745643 -0.909208 -0.6375689 -0.7011679 -0.0042580473
-1.5486325 0.637587 0.25206193 -3.9375415 0.3282964 1.7819675 -0.73649895 -0.80015314
0.46190158 0.09384544 -1.5218382 -0.04442255 -0.6762652 0.71713877 -0.73846525 -1.0671022
0.68242455 -0.0048466544 0.16974032 -0.51896 0.41166425 0.08659907 -1.0326161 0.15158895
0.031448077 0.37504292 0.5706184 -0.77324164 0.5568964 -1.6730958 -0.9385385 -0.3447155
-0.5350858 0.09006091 -1.3043543 -1.2893193 0.10035678 -1.2634171 -0.013454004 0.85274154
0.5209883 0.059202798 -1.5645477 -1.9966167 -0.38826638 0.37613901 -1.1330032 -2.2077613
-0.9562255 0.4643317 0.60768634 0.46453714 0.7870892 -1.3135709 -0.44676533 -0.20751198
0.17266503 -0.51535755 -0.55424345 -0.52703524 -0.6645122 -2.1658666 -1.2495114 -1.6096983
0.335855 0.5222106 0.044635497 -1.0068558 -0.8364383 0.71541953 0.37301007 0.70557725
-0.11956943 -1.8309287 -0.6532428 0.512532 0.2907032 -1.2481517 0.21256804 -0.76394296
0.2583732 0.28517237 -0.96825445 0.36203447 0.68600523 -2.1428835 -0.113742195 -0.3795641
-0.4508491 0.04873019 -0.1567647 1.1539773 0.39259538 -0.10012243 -1.5129193 -0.17795311
0.08043213 0.71930945 -1.8250005 0.8868045 0.56519234 -0.5022541 -1.0179524 -2.1456132
-2.5422223 -1.1720273 -0.9440192 0.65444744 -0.5619643 1.102159 0.22078654 -0.66091716
0.50616074 -0.9120043 -0.35005164 0.7991205 -1.1191233 -1.2921436 -1.379456 -1.5819297
-1.5686128 -0.03873025 -1.856183 0.4049293 -0.7556905 -1.4015296 1.6932219 0.7730639
-1.7992076 0.45541772 -0.27072206 -0.5441375 -0.24909474 0.7320968 -0.6745993 -0.31550398
0.31323266 -0.43242246 -0.46770427 -0.28014505 -1.8040059 -0.040296037 0.7205942 -0.9964705
0.114440456 0.08238098 0.08199792 0.60469717 -0.3982052 0.7279495 0.32907438 0.0895079
-0.3239633 -0.7127128 0.16332868 0.31558067 0.5117552 -1.9630165 -0.9909502 -0.16940232
-0.9109487 0.345326 -0.9527654 -0.5380075 -1.887057 0.3191709 -0.4429548 -0.12586853
-0.81937736 -1.0553836 -1.887818 -0.7429252 -1.5041909 -0.17087801 -1.3221314 -0.6681182
-0.012237125 0.54811096 -1.8751482 3.7966228 -0.21114752 -0.22589774 0.69440365 -0.8471246
-1.1706321 1.1498545 -2.2497 -0.26027116 -1.3627846 0.55084866 -0.12464268 1.0562339
-0.4716858 0.78523076 0.3824367 0.64452565 -0.08533138 0.55004483 -0.20034385 0.99970484
1.130945 -0.6506811 -0.48383185 -0.66912144 0.06419263 -0.3583659 0.5438019 -0.41760728
-0.034180876 0.81233823 -0.018199826 -0.26826647 0.83934 0.5917011 0.55010587 -1.2048713
-0.8185515 -0.6568576 -0.85601276 -0.24844526 -0.12583084 -0.06591162 0.0670734 -0.17688085
0.24252291 1.9484384 -0.5926926 -0.4236061 0.009654275 -0.5629394 -0.37045804 -0.021778962

layer_lnc.2.bias f4 [150]
00000000: 5223 003f fe13 50c0 3295 d9bd e5a4 0ac0
00000010: a591 7dc0 44cf 73c0 d622 02c0 9e15 1bc0
00000020: 39ff 68c0 0022 4bc0 066b 26c0 1ec8 13c0
00000030: bebe e1bf 082e 5ac0 2614 03c0 93dc 3cbf
00000040: a670 18c0 3250 60c0 dfd9 1ec0 ce38 f0be
00000050: ce33 30c0 39b2 26c0 3840 23c0 d559 29c0
00000060: f3c8 9fbf df2f d8bf 6573 58c0 25e7 6cc0
00000070: b7d0 f8bf 0d7a 31c0 e5af 8ebe e27f 86c0
00000080: aacc cfbf 5a98 2bc0 f372 54c0 6763 d7bf
00000090: bba1 6dc0 4339 1cc0 deb8 3ec0 ec75 34c0
000000a0: fd9a 30c0 b577 1ec0 85cc 81c0 9659 02c0
000000b0: d344 17c0 e756 68c0 82b7 01c0 4863 18c0
000000c0: 58a9 8dbf 9e53 55c0 a833 41c0 bd6e c5bf
000000d0: 72b2 1dc0 f26a b3bf fe16 40c0 cd6d 46c0
000000e0: 25a2 67bf 5162 67c0 9285 4cc0 3a8c dbbf
000000f0: d5b3 6dc0 2690 35c0 60f2 0ac0 471d f2bf
00000100: 0b16 4ebf 6881 1ac0 077b d1bf 220b ca3c
00000110: b662 64c0 e799 38c0 fba6 f0bc 2fb6 02c0
00000120: 6046 e3bf a150 c1bf f6f9 adbf 9305 20c0
00000130: c007 03c0 fca1 23c0 8f63 4ac0 6a84 28c0
00000140: fa54 f1bf c7c9 b4bf ece5 d1bf 7e6f f0bf
00000150: 376b e7be c328 8ac0 2c72 5e3f 90ef 3fc0
00000160: 175b 66c0 501b e9bf 97ac a0bf 899f 21c0
00000170: e1d2 41c0 3431 693e 013f c0bf 70d0 77bf
00000180: 8662 79c0 f1f8 1fc0 1a9b 30c0 7208 36c0
00000190: bf07 37c0 2318 3bc0 d654 3ac0 869b 59c0
000001a0: b4e4 27c0 3aec d8bf a722 d5bf 9bae d1bf
000001b0: 25f3 24bf 593e 5cbf ebf8 bdbe 0a3b 36c0
000001c0: e8ea 5bc0 7261 12c0 0de4 20c0 124c 1dc0
000001d0: 02da 2ec0 031d 3dc0 afbb 38c0 8f99 debf
000001e0: 114d 96bf 254e babf 874b fa3d 5638 02c0
000001f0: ac2b 26c0 1d04 26c0 52ec 3ec0 3b13 50c0
00000200: c316 e2bf dc92 8dc0 c697 50c0 8480 3bc0
00000210: c5e3 2bc0 24ae 32c0 d035 95bf fb86 07c0
00000220: 45b9 57c0 13e1 46c0 e493 17c0 1593 3cc0
00000230: 5ce0 5cc0 5932 cbbf e0ae acbf 61a0 47c0
00000240: 4f7c 27c0 a001 93bf dc00 a7be 93de 35c0
00000250: 7c0d 67c0 ab30 52c0
0.50053895 -3.2512202 -0.1062416 -2.1663144 -3.9620144 -3.8095255 -2.0333762 -2.4231944
-3.6405776 -3.1739502 -2.6002822 -2.3090892 -1.7636335 -3.4090595 -2.0481048 -0.7377407
-2.3818755 -3.5048947 -2.4820478 -0.4691834 -2.753162 -2.6046278 -2.5507946 -2.646108
-1.24832 -1.6889609 -3.3820431 -3.701608 -1.9438695 -2.7730744 -0.27868572 -4.2031107
-1.6234334 -2.6811738 -3.319516 -1.682721 -3.7129962 -2.440995 -2.9800334 -2.8196974
-2.7594597 -2.4760563 -4.056216 -2.036718 -2.3635757 -3.630304 -2.0268254 -2.3810596
-1.1067305 -3.3332286 -3.0187778 -1.542442 -2.4640164 -1.4017012 -3.0014033 -3.1004517
-0.9048179 -3.6153758 -3.1956525 -1.7152169 -3.714101 -2.8369231 -2.1710434 -1.8915185
-0.80502385 -2.4141483 -1.636567 0.024663512 -3.5685248 -2.8843935 -0.029376497 -2.0423696
-1.7755852 -1.5102731 -1.3591907 -2.5003402 -2.047348 -2.5567617 -3.1623266 -2.633082
-1.8854058 -1.4124078 -1.6398292 -1.8784025 -0.45198986 -4.317476 0.8689296 -2.9989967
-3.5993097 -1.821146 -1.255267 -2.5253623 -3.028496 0.22772676 -1.5019227 -0.96802425
-3.8966384 -2.4995692 -2.7594666 -2.8442655 -2.8598478 -2.9233482 -2.911428 -3.4001174
-2.623334 -1.6947091 -1.66512 -1.638141 -0.6443351 -0.86032635 -0.37103972 -2.8473535
-3.4362125 -2.2871976 -2.513919 -2.457768 -2.7320561 -2.9548957 -2.8864553 -1.7390612
-1.1742269 -1.4555098 0.12221437 -2.0346885 -2.5964155 -2.594001 -2.9831738 -3.2511737
-1.7663196 -4.424177 -3.2592635 -2.929719 -2.685777 -2.7918787 -1.1657047 -2.1176136
-3.370683 -3.1074874 -2.3684015 -2.9464772 -3.4511938 -1.587474 -1.3490868 -3.1191638
-2.6169622 -1.1484871 -0.32617843 -2.8417099 -3.610198 -3.2842205

layer_lnc.4.weight f4 [100, 150]
00000000: 894a 0d3f cff6 3c3e e1ac 433f 60fb 16bf
00000010: 200e 56be 5a59 7ebe a2c8 c5bb b09c ac3e
00000020: 9ef1 0dbd 6293 503e 70b2 14bc 57aa a13d
00000030: a176 133e a4ed 513e 7494 66bd 45c0 013f
00000040: b40a 71be 4dda c3bd edad 0c3f a70a 1c3e
00000050: 7f0f 823e d94a 17bf dc6c c1be b04b ec3e
00000060: aa51 b63e 7037 bbbe ae77 6bbd 8023 e33d
00000070: f780 b03e bfdc 9ebe 7c53 333e f419 c03d
00000080: 8071 283f 210b c43e 599f 1a3e 2669 26be
00000090: 254a 82be 104f 0e3d 3e84 6b3e 37ff 8dbe
000000a0: 7463 c9be 1921 863d c1ed 2ebe f507 b6be
000000b0: 172a 1e3e 8126 88be 8f10 623e bf7c 6e3e
000000c0: fa68 213f 5ed9 e3be 3396 023f b93e 7b3e
000000d0: db46 df3e 3cae 753d 0dcc d0be 35ab b9bd
000000e0: cf22 19bf 48d9 0a3f d84c 94be f11d d33e
000000f0: c6d1 c7be dbc0 0d3d 8ffd 21be 0986 e5be
00000100: 0615 1f3f a4ef 3e3e cf1e 0cbf 04e3 993e
00000110: 9cc7 6b3d b6bb a13e 210d ed3e 380e 353e
00000120: f273 03be 8723 f9bc 3e93 92bd d0bb 8b3e
00000130: 7557 7e3e 0091 4ebd 9965 8a3d fe18 e93c
00000140: 0a3a 813e fdad 94bd f98a 83be 5346 863e
00000150: caaf 053f bae1 86be 3d35 cb3d 2f3a 04be
00000160: d2fa 39be d90d 403d 5317 0b3f ea6a a7bd
00000170: 96eb cbbd dd3a 3e3f e181 253e 936f 653e
00000180: 74c9 f33d 8a5c ecbd 10ba debe efd4 9dbe
00000190: ec94 6e3e a3cb c5be ee03 1b3e bbcb d3be
000001a0: d93a 763e 2683 a4bc edab a3be 4d40 a4bd
000001b0: 381e 2f3e 05d0 cb3c be26 9d3e 887a 50be
000001c0: d592 c5be 5c64 9ebe aac9 b73d e716 8dbd
000001d0: 1970 58bd b66d ffbe e8bf 40be 8ee6 003d
000001e0: e2a3 8abe 3c36 973d 211a c83e 0d65 483e
000001f0: d803 b6be f9a9 b2be 24a7 d13d 0102 01be
00000200: 1b70 54be d872 a63e 21d2 2fbe 5a8b 983e
00000210: d89e a73d 0a29 043e b0c8 d3be 76bd 033d
00000220: 71e7 b23d f858 22be 517f 98bd 8778 af3e
00000230: cefb dfbd edd1 c93e 6f3b 0b3f 753d 943b
00000240: 64a8 08be c6c5 d63d db10 703e 380f ea3d
00000250: e641 95bd 97ef 6ebc ed69 83be 943c 08be
00000260: 96e4 37be 7d43 663e 6f04 e2be e4aa 65be
00000270: 2b7e 2a3e e41a febc d344 063e f90a 9d3e
00000280: 3d6d c23e 9093 5ebf 194a 1dbe 5fb1 25bf
00000290: f222 84be 96e2 263e c39d 22bf e5d7 39be
000002a0: 4810 a7bc b979 223e d7cd 23be 2cfe 44bf
000002b0: 8b5b 873e 88f4 203e f7b8 dabd c17a 9d3c
000002c0: ff69 4ebe bd6e 0fbf 6f4a 4e3c da36 b9be
000002d0: 045b fe3d 8320 1cbe f2eb 113e 559a 91bd
000002e0: 4428 773d fb02 5d3b d641 16bf c4d4 08be
000002f0: 82cf 9c3e 85fc 3b3e 3297 ad3e eec7 32bd
00000300: dd3c a6be 3c84 023f c2f0 8c3e f691 ba3d
00000310: 69cc bc3e bfad 953e b2ae 3b3e 1a2e c33e
00000320: f8c2 11bf 0ff9 133c b32b 29be 917f 8c3e
00000330: 5322 b63e 6c38 00bb 21df 7dbd d6c3 ffbe
00000340: 472d 78bd 4deb a23d fca2 94bd cf39 9f3e
00000350: 2fa3 433e 12fa cbbd 6a91 8a3d dd01 e6be
00000360: f3e4 d23d f5f4 c1be c1b2 2abe d225 34be
00000370: d29f c4be da92 a1bd 5b66 2fbd c97a 81be
00000380: e2a6 abbd ea46 b2bd 38fe 30bd 2e39 fcbe
00000390: cd0e 98bd 71a8 903e 43cd eabe e89d 38bd
000003a0: dcba ea3e 966a 5b3e a234 1fbe 1b3f a5be
000003b0: 22c6 543e 1198 7b3e 95b0 8fbe 4a23 2ebd
000003c0: 33e9 933e 3a56 2c3e 6f54 613e f611 adbe
000003d0: 1ae1 c2bd 3b94 17bd 485e d7bc 78d4 15bf
000003e0: 060a c23e 27c0 0d3f e5a8 863e d715 04bf
000003f0: f2ec 953e 6363 5c3e 88a2 53bf 8a1e f83d
0.55191857 0.18453525 0.7643567 -0.5897732 -0.20903826 -0.24838772 -0.00603588 0.33713293
-0.034654252 0.20368722 -0.009075746 0.07893818 0.14400722 0.20500809 -0.05629392 0.50684005
-0.23539239 -0.09563122 0.5495289 0.15238439 0.25402448 -0.59098583 -0.37778366 0.46151495
0.3560918 -0.36565733 -0.057487182 0.110907555 0.34473392 -0.3102779 0.17512316 0.0937995
0.6579819 0.3828974 0.15099849 -0.16251048 -0.25447193 0.03474337 0.22999665 -0.27733776
-0.3933369 0.065492816 -0.17082883 -0.35552946 0.15445744 -0.26591876 0.22076629 0.23289774
0.63050807 -0.44501776 0.51010436 0.24535646 0.43608746 0.059980616 -0.40780678 -0.09065858
-0.5981874 0.54237795 -0.28964877 0.4123378 -0.39027232 0.03460775 -0.15819381 -0.44828823
0.62141454 0.18646103 -0.5473451 0.30056012 0.05756341 0.31588525 0.4629908 0.17681205
-0.12837198 -0.030412449 -0.071569905 0.27291727 0.2483805 -0.05043125 0.067576595 0.0284543
0.25239593 -0.07259748 -0.25691965 0.26225528 0.5222136 -0.2634409 0.09922264 -0.1291282
-0.18162087 0.046888206 0.54332465 -0.08174689 -0.09957044 0.7430857 0.16162826 0.22405843
0.119036585 -0.11541088 -0.4350133 -0.30826518 0.23298997 -0.38631925 0.15138218 -0.41366372
0.24045886 -0.020082068 -0.31967106 -0.08020077 0.17101371 0.024879465 0.3069362 -0.20359242
-0.38588586 -0.30935943 0.08974011 -0.06889134 -0.05284128 -0.4988839 -0.18823206 0.031469874
-0.27078158 0.07383391 0.39082435 0.19569798 -0.35549808 -0.34895304 0.10236958 -0.1259842
-0.2074589 0.32509494 -0.17170002 0.29793817 0.08184594 0.1290628 -0.4136405 0.032163106
0.0873555 -0.15854251 -0.07446159 0.34271643 -0.109367 0.39417973 0.54387563 0.004523928
-0.13345486 0.10486941 0.2344393 0.11428684 -0.0728796 -0.01458349 -0.25666752 -0.13304359
-0.17958292 0.22486682 -0.44144008 -0.22428471 0.16649692 -0.031018682 0.13112192 0.30672434
0.37973967 -0.8694391 -0.15360297 -0.6472377 -0.2580791 0.16297373 -0.63521975 -0.18148763
-0.020393506 0.15866746 -0.1599649 -0.76950336 0.2643703 0.15718281 -0.106798105 0.019223573
-0.20157622 -0.5602835 0.012590989 -0.3617466 0.124197036 -0.15246777 0.14250162 -0.071095146
0.060341135 0.00337237 -0.5869421 -0.13362414 0.30627066 0.18358047 0.33904415 -0.0436477
-0.3246831 0.50983024 0.27527434 0.09109871 0.36874703 0.2923412 0.1832836 0.3812111
-0.56938124 0.009031548 -0.16520576 0.27441075 0.35573062 -0.001956488 -0.06198037 -0.49954098
-0.060590055 0.07955036 -0.07257649 0.31098792 0.19105218 -0.099598065 0.06766017 -0.44923297
0.10297575 -0.378822 -0.16669752 -0.17592552 -0.38403183 -0.07889338 -0.042822223 -0.2528899
-0.0838144 -0.08704932 -0.043211192 -0.49262375 -0.07424698 0.2825351 -0.45859727 -0.045072466
0.45845687 0.21427378 -0.15547422 -0.32274708 0.20778707 0.24569727 -0.2806441 -0.042514123
0.28888854 0.16829768 0.22004865 -0.33802766 -0.09515591 -0.037006598 -0.026290074 -0.58527327
0.37898272 0.55371326 0.2630073 -0.51595825 0.29282337 0.21522288 -0.8266988 0.121152

layer_lnc.4.bias f4 [100]
00000000: d925 043e 6d83 b4be 68ab 09bc af0a ae3d
00000010: 1bce 803c a2b9 373c 3def 10bd 887c 4dbd
00000020: f03d 323c 3840 ff3b e237 403d 5cbe 893c
00000030: be93 043d 2e7a 5b3c 7f9f 53bd d7cf 12bd
00000040: 5e16 8ebd f6fe 403d f513 c73e 10e8 ffbc
00000050: 1290 303d 1c48 313d 56c0 d8bd 3055 00bb
00000060: f6e2 79bc d3e8 37bd b495 013d bc62 443e
00000070: 92ca 183e 4421 103b 89e1 d63c 5456 c7bc
00000080: ee87 19bd 6fff b0bd 50a2 26bd 0cab 84bb
00000090: dcca e9bc 77f3 d73c 9eb7 e43d b663 82bc
000000a0: cad5 71bc a683 9abd 4301 f2bc 29d0 27be
000000b0: 920f a0bd bc61 0fbc 4bfb d23b 63f7 053d
000000c0: 4732 2c3c 7b19 46bd 6d59 c63c b700 f93c
000000d0: ec9f 4cbd 72e6 96bc 5b4b 10bd 9ac4 54bd
000000e0: 749a 2abd de42 913c 3b0d 42bd 8d42 9bbb
000000f0: 5cac 4a3d 74e6 0abb ccfc 03bc c31b 513c
00000100: 0d9f b43b 634f 82bc 866c 133d ff6c b43d
00000110: b629 80bc 2fec a9bb b793 adbd 07dc b9bc
00000120: df37 6c3c c698 efbd ccd8 143c 3c9c 95bc
00000130: a19a 4ebd 2959 963d 12ea 30bc 599d b63d
00000140: 5b34 f6bb 847d f03c 0788 96be 0f7c f73c
00000150: 9799 bfbb 763c 93bc 76bd cfbd 2192 393d
00000160: 3fa2 8e39 c5de 86bc 2665 183d 6492 8abd
00000170: c330 2e3d 0eae 073e e8e0 e6ba c32a 49bc
00000180: f8ab 69bd 2ec6 0abe 2d99 663d 34c8 ebbf
0.12905063 -0.3525652 -0.008402683 0.084981315 0.015723279 0.011213692 -0.035384405 -0.05016759
0.010879025 0.007789638 0.046928294 0.016814403 0.03236746 0.013395829 -0.05166578 -0.035842743
-0.0693786 0.04711815 0.38882414 -0.031238586 0.043106146 0.04328166 -0.1058356 -0.0019582026
-0.015251866 -0.044899773 0.03163691 0.19178289 0.14921024 0.0021992484 0.02623059 -0.024333157
-0.03748315 -0.0864247 -0.040682137 -0.0040487107 -0.028539114 0.02636121 0.11167835 -0.015916687
-0.014760444 -0.07544641 -0.029541617 -0.16388 -0.0781547 -0.008751329 0.006438648 0.03270663
0.010510034 -0.048364144 0.024212563 0.030395849 -0.0499572 -0.018420432 -0.035228115 -0.051945306
-0.041651204 0.01773208 -0.0473759 -0.004738158 0.04948078 -0.002119449 -0.008055877 0.012762967
0.0055121244 -0.015906995 0.035992168 0.08809852 -0.01564489 -0.005185626 -0.0847544 -0.022687925
0.014417618 -0.11699061 0.0090848915 -0.018262975 -0.050440434 0.07341225 -0.010797994 0.089167304
-0.0075135655 0.029356726 -0.29400656 0.030210523 -0.0058471668 -0.017973166 -0.10143559 0.045305375
0.00027205233 -0.016463647 0.037205838 -0.06766203 0.04252697 0.1324999 -0.0017614635 -0.012278262
-0.057048768 -0.13552162 0.056298424 -1.8420472

layer_pro.0.weight f4 [220, 343]
00000000: 3b58 b9bf 363d 2bbf 92fc 063f 071a bebf
00000010: b480 27c0 9a67 d63d 4e1f 96bb 3f44 ebbf
00000020: 7e37 edbf 481c c83c 911e aebf 9d7d 64bf
00000030: 2500 2c3e 43b8 6ebf 2083 c6bf 5af0 193f
00000040: f14a 103f b189 08bf 6b89 3bc0 a8eb 2bbf
00000050: 120d e9bf 75d4 c2bf 959c 99bc 7ca4 fcbb
00000060: d5d6 33bc 750e edbe f698 46c0 9592 cdbf
00000070: 5a1a ecbf 51fb 13bf 3340 34bf aeaa 25c0
00000080: f303 85bf 395c b03e 3bea bdbf b978 cebf
00000090: 03ba d1bf cb96 ffbf 30dc fd3c 5b0f 2dc0
000000a0: 2b93 8c3f 0f0e fabf 539b 15c0 3ee1 0ac0
000000b0: 0643 a13e 0f99 b8bf df41 f63e fc55 66bf
000000c0: 107c 15c0 688e c7bf 2772 cdbf be58 bdbe
000000d0: 5b65 ab3e 9996 d5bf 5283 94bf 9afe adbf
000000e0: 368f 07c0 3997 153e 35fb 333f dc42 ebbd
000000f0: 4977 d63e 56fb 113f 98fd 46bf b23d 2d3f
00000100: db2d 8dbf 906a 3abe 1ab4 f2bf 299e 0bbf
00000110: b874 f93f 76ac 0dbd 4ecf 98be 8b21 8abf
00000120: 6b2a a7bf 50a3 cdbe 252f 203e 9721 c7be
00000130: 3867 f4bf c9c1 e3be 1346 44be 5307 04bf
00000140: 4a76 6fbf 7ccb 653f fb22 a6bf 6a76 343f
00000150: 7eaf 80bf c4fa 5dbf 71c6 f93f c425 5fbf
00000160: 4305 efbe 8575 16c0 1517 19c0 bd5a 15c0
00000170: f7a0 c6bf 9893 97bf e2b6 1bbe b4a9 2ac0
00000180: 0e81 a13e 3f16 87c0 25f6 a73d bdcc cabf
00000190: d31e 2bc0 1341 5bbf d979 ec3e af88 10bf
000001a0: 0351 a9bf 1fd0 dbbc 96db 753f d140 44bf
000001b0: b458 28be d159 6dbf b79c cc3f 3202 55bf
000001c0: df45 4fbe 8682 22bf f92f b93e 15af 483f
000001d0: 346f b33d 97e7 663f 97a2 84bd aca2 8abe
000001e0: 93aa a5bf 3d36 d4bf 0711 25bf c540 cabe
000001f0: dd91 fa3e 6a71 f0bf 0922 51be a762 e0bf
00000200: f846 b1bf 8af3 3b3f 1db2 7fc0 6025 b7bf
00000210: 8c8e e8bf 4de6 32bf d78b 4cbf 211c 21bf
00000220: 712b d8bf 1ec5 253f 7a72 6d3f 9f09 bebc
00000230: e71d 80bf 355f 163f b6e4 80bf 2e2e 58c0
00000240: 356a 1c3e 37e7 e9bd 7881 59c0 f90f 16bf
00000250: 3a90 3ebe 1ea4 3ebf 104b 0d3f 4183 6ebf
00000260: 5d4e 19c0 e628 29c0 6a88 723f ba63 113f
00000270: c767 a5bf 3e20 d43b c94c 9dbf 8fec 30bf
00000280: f68a 53be 8593 0fc0 e625 153f db51 463d
00000290: 8c85 2fc0 d9a1 e4bf fbf9 c5bf 79f0 10bd
000002a0: 5afc cdbf 1367 803f c5f3 59bf 4226 4ebf
000002b0: 0465 d43e 968d d0bf e555 433f 51e7 f4bf
000002c0: c323 0ebf d101 10bf 1c39 523f d4f8 01c0
000002d0: 6b4c 36bf bdf5 9dbf 91c1 00c0 e859 f6bf
000002e0: ae12 d5bf 3533 b83f 9dd0 acbf 2ef6 abbf
000002f0: 6a78 8fbf 1e79 11c0 ac3e 0840 ff2a 1c3f
00000300: de3f 14c0 1dc6 d8bf cc37 3ac0 6411 3bc0
00000310: 556b b9be db80 f6bf 5209 abbf 99da cb3e
00000320: 5aae b5be 0bf8 90bf 9826 b3be a9ca 2ac0
00000330: 54ca b1bf 4868 63bf 45ac e63d 3fe9 08bd
00000340: 7f0b b7bf c7d7 b6bf a5a9 12c0 93b6 a63f
00000350: dc94 32bf 09c6 563f 8758 32c0 08e7 e6bf
00000360: 484c 3abe c5c6 b6bf 8cec abbf a43e 72bf
00000370: 65ed 32bf 5e04 dcbf 89dd 68bf 2fc3 3c40
00000380: c922 08bf 0429 ffbf 47ac 9dbf bbf6 50bf
00000390: eb27 bcbf cc3a f7bf 081a 80bf d694 45bf
000003a0: 0494 dcbf 4eb4 fa3e db6d 8bbd 645a 65bf
000003b0: db38 83bf 6da9 20c0 84e8 56bf e90a 21bf
000003c0: d70a 04bf 650f 7ac0 21e9 033e 1e84 28c0
000003d0: 6223 9cc0 8272 25bf 5964 c53c 2b8c 363f
000003e0: 45a3 26c0 fe83 ccbf c196 b2bf 0fdb 1bbe
000003f0: 4a9b bcbe 6513 5fbf 6746 55be 7d79 bcbf
-1.4480051 -0.66890275 0.5272914 -1.4851693 -2.6172304 0.10468979 -0.0045813685 -1.8380202
-1.853256 0.024427548 -1.3603078 -0.8925417 0.1679693 -0.9324991 -1.5508766 0.6013237
0.5636435 -0.533351 -2.9302623 -0.6715646 -1.8207114 -1.5221087 -0.018751422 -0.0077100378
-0.010976513 -0.46300092 -3.103086 -1.6060358 -1.8445542 -0.57805353 -0.7041046 -2.5885425
-1.039183 0.3444536 -1.4837106 -1.6130592 -1.6384891 -1.9967893 0.030988783 -2.7040622
1.0982412 -1.953554 -2.3376052 -2.1699977 0.31496447 -1.442171 0.4809713 -0.8997495
-2.3356972 -1.5590334 -1.6050462 -0.36981767 0.33475766 -1.6686584 -1.1602576 -1.3593323
-2.118116 0.14608468 0.70305187 -0.11487362 0.41887882 0.57024133 -0.77730703 0.67672265
-1.1029619 -0.18204713 -1.8961213 -0.5453821 1.9488745 -0.0345883 -0.2984566 -1.0791487
-1.305982 -0.4016366 0.15642984 -0.38892815 -1.9094 -0.44483784 -0.19167356 -0.51573676
-0.9353987 0.8976362 -1.2979425 0.70493186 -1.0053556 -0.8671076 1.9513685 -0.87167
-0.46683702 -2.3509228 -2.3920338 -2.3336632 -1.5517873 -1.1841917 -0.15206483 -2.6666079
0.31543773 -4.2214656 0.08201245 -1.5843731 -2.6737564 -0.8564617 0.46186712 -0.5645856
-1.3227848 -0.026832638 0.96038187 -0.766614 -0.16440088 -0.92715174 1.5985326 -0.83206475
-0.20241497 -0.6348041 0.36169413 0.78392154 0.08761445 0.9019713 -0.06476324 -0.27077234
-1.294268 -1.6579052 -0.64479107 -0.3950254 0.4893941 -1.8784611 -0.2042314 -1.7530106
-1.3849783 0.73418486 -3.9952462 -1.4308281 -1.8168502 -0.6988266 -0.7990088 -0.62933546
-1.6888257 0.647539 0.927528 -0.023197947 -1.0009125 0.58739024 -1.0069797 -3.3778186
0.1527489 -0.11421054 -3.3985271 -0.5861812 -0.18609706 -0.7446917 0.5519266 -0.9316903
-2.395408 -2.6431212 0.947394 0.56792796 -1.2922295 0.00647357 -1.2289058 -0.6911096
-0.20658478 -2.2433789 0.58260953 0.048417907 -2.742526 -1.7861892 -1.5466913 -0.035385583
-1.6092637 1.0031456 -0.8513759 -0.80527127 0.4148332 -1.6293209 0.7630294 -1.9133092
-0.5552332 -0.5625277 0.8211839 -2.0308123 -0.71210355 -1.2340618 -2.0118144 -1.9246187
-1.6646326 1.4390627 -1.3501164 -1.3434503 -1.1208622 -2.2730174 2.1288252 0.61003107
-2.3163981 -1.6935459 -2.9096556 -2.9229364 -0.362147 -1.9258074 -1.3362219 0.39815214
-0.35484582 -1.1325697 -0.34990382 -2.6686194 -1.3889871 -0.88830996 0.112633266 -0.033425566
-1.4300383 -1.42846 -2.2916043 1.3024467 -0.6975839 0.8389593 -2.7866533 -1.8039255
-0.18193161 -1.427941 -1.3431563 -0.9462683 -0.69893485 -1.7188833 -0.90963036 2.949413
-0.5317808 -1.9934392 -1.23182 -0.8162648 -1.4699682 -1.9314818 -1.0007944 -0.7718023
-1.7232671 0.48965687 -0.06808063 -0.8959105 -1.0251726 -2.510341 -0.8394854 -0.6290727
-0.5157904 -3.9071896 0.128819 -2.6330638 -4.879319 -0.6462785 0.024095701 0.7130763
-2.6037152 -1.5977781 -1.3952256 -0.15220283 -0.36837226 -0.8713897 -0.20827638 -1.4724575

layer_pro.0.bias f4 [220]
00000000: d2d4 ea40 a692 2fc0 1e72 80c0 341e efc0
00000010: a1ac 4ec0 a1bc 99c0 2a46 5740 bf0e f1c0
00000020: a60b 8140 baf7 a440 a88f 8cc0 5d7c 87bf
00000030: 30bc 23bf ae64 4fc0 49ed 083f 8cd8 0cc1
00000040: 661d b140 098c a0c0 81fb 35c0 26d0 c840
00000050: e766 cabf 23dc b840 280a 1340 d371 34c0
00000060: 9484 d7c0 5b1f 103f 9a43 8940 87a9 f43f
00000070: 30f1 01bf 6839 fbbf 4201 41c0 cf53 13c0
00000080: c73f e53e 861a 08c0 7b6b 5540 17bc 4ec0
00000090: aed0 52c0 3f2e d53f e811 6bc0 103c 9ac0
000000a0: c244 fb3f 984a abbf 0560 aac0 3783 84c0
000000b0: 527f ef40 c409 2841 3cc6 e7c0 f09e 4abf
000000c0: 17a8 4740 851b 00c0 a22b d240 82c0 7abf
000000d0: f04e 7f40 32ef aac0 3693 2240 6f9b 343e
000000e0: 3479 9bbe 08c1 6e40 dab2 71c0 960c c7c0
000000f0: 3457 e3bf b763 5d3f 2786 8740 14c1 4240
00000100: 9f33 6040 f91e eebd 5e25 003f 7073 0440
00000110: 760f 8740 3e9b 84c0 c3e9 5b40 3296 96c0
00000120: 7729 c9c0 d1f8 c340 b966 f440 331e 03c1
00000130: 44eb b940 3f8a a640 30b7 90c0 8eff a9c0
00000140: 8d48 bf40 48d6 b1c0 d068 c7c0 2a1c d040
00000150: 101c 62bf 342b 2f41 1f3e 63c0 b66f 4a3f
00000160: 6b2d 423f 2e98 20c0 347e b1c0 46e5 dbbe
00000170: 8d42 373f a1a1 d5c0 614e c940 4f14 99bf
00000180: 3791 1841 d1cf 053f a9be 7cbf 964e 11be
00000190: 7825 5fc0 b38a 59bf 7c5e 25c0 fe97 b4c0
000001a0: 8a53 7340 6e78 4ac0 5d5c fe3d 28e7 e0bf
000001b0: 1fa9 b1bf 5808 e33e 1d9d 5b3e 0f7d 6440
000001c0: 7836 d3c0 94b7 bf40 8dcf 81c0 75b7 e0bf
000001d0: 7ddd d440 707a fdbf 8ba6 8f40 d64b 4640
000001e0: f03e 533e 89e2 63c0 69dc 98be c926 83c0
000001f0: 28b8 aec0 edf7 13c0 8f37 2bc0 e6f4 8bbf
00000200: d8d2 5f40 42d6 aa40 f6c2 9740 30a4 4040
00000210: 0e6d 3c40 67fa 73c0 3ea3 73c0 51de 89c0
00000220: 4cdb 9cc0 0422 5540 34af 3940 42b1 4840
00000230: 3dd1 2ec0 255a c0c0 2e7f ca40 8463 ab3f
00000240: 5076 b8c0 f9da 35c0 4fbf 25c1 f82f f93f
00000250: f4fb ffbf 8b07 85c0 a8f9 41bf 5b4b 2ec0
00000260: 55f9 263f 5b69 febf 21f9 18c0 789a 63bf
00000270: 74bd e6bf 3b49 ce40 9257 b3c0 a44c 58c0
00000280: bace 6e3f b00b 94c0 aa30 32c0 a642 8d3e
00000290: 13ea a9c0 94d6 6fc0 30aa c23e aea6 d1c0
000002a0: 2f5b 3b40 5331 b540 771c 54c0 6f37 8a40
000002b0: 82bd 3cc0 5a7b d9c0 2014 0fc0 a018 d4c0
000002c0: 4fcc acc0 6c25 fdbf dd66 d8bf 58c4 0441
000002d0: 4a86 5ec0 fd68 11c0 c773 7940 6f10 2ac0
000002e0: 4065 a9c0 2f6d dbc0 f49b 8940 2905 e140
000002f0: f337 ee40 3876 1d3f b963 6f40 f1aa 0bc1
00000300: 1afc 9540 cbdb 19c0 06e1 c240 b43b 45bf
00000310: 1238 a4c0 b7e1 71bf 01ae cb3f 1fa6 be40
00000320: d180 a2c0 b0f6 a040 a9a9 2b40 7bb6 b540
00000330: e805 0fc0 a395 adbf 7c3e 9940 292d e540
00000340: 4da4 f43f 3fb2 8dbf 41d4 3fc0 4a0d bc3f
00000350: 6d30 6f40 fffc 3c40 8f80 8cc0 0ae4 febf
00000360: ca28 333f 510b 6340 80b6 fe3f edfc 31c0
7.338479 -2.7433257 -4.0139303 -7.472437 -3.2292864 -4.804276 3.3636575 -7.53305
4.032672 5.15524 -4.392536 -1.0584828 -0.63959026 -3.24052 0.5348707 -8.802868
5.5348387 -5.017094 -2.8434756 6.2754087 -1.5812653 5.776872 2.297495 -2.8194473
-6.734934 0.56297845 4.289502 1.9114236 -0.5075865 -1.9626894 -3.0157018 -2.3019903
0.4477522 -2.1266189 3.334685 -3.23023 -3.2939868 1.6654738 -3.672968 -4.819832
1.9630358 -1.3382139 -5.324221 -4.1410174 7.484292 10.502384 -7.2429485 -0.7914877
3.1196344 -2.0016797 6.5678263 -0.97949994 3.989193 -5.3416986 2.540235 0.17637418
-0.30365908 3.7305317 -3.7765412 -6.2202864 -1.7760987 0.8648028 4.235126 3.0430346
3.5031507 -0.11627001 0.5005702 2.0695457 4.2206373 -4.1439505 3.4361427 -4.7058344
-6.2863116 6.124123 7.6375394 -8.194873 5.809969 5.2043757 -4.5223618 -5.3124456
5.9776063 -5.5574074 -6.2315445 6.503438 -0.8832407 10.948048 -3.5506666 0.7907671
0.7585055 -2.5092883 -5.5466557 -0.4294836 0.71585923 -6.67598 6.2908177 -1.1959323
9.535453 0.5227023 -0.98728424 -0.14190134 -3.486662 -0.84977263 -2.5838919 -5.6435537
3.8019738 -3.1636004 0.12419961 -1.7570543 -1.3879737 0.44342303 0.21446653 3.570133
-6.600399 5.9911594 -4.056586 -1.7555987 6.652037 -1.980299 4.48908 3.0983787
0.20629478 -3.5607016 -0.2985566 -4.0984845 -5.45998 -2.3120072 -2.675266 -1.0934112
3.497244 5.3386545 4.742549 3.0100212 2.9441562 -3.8121583 -3.8068385 -4.308388
-4.9017696 3.3302011 2.9013186 3.135819 -2.731521 -6.011004 6.328025 1.3389745
-5.7644424 -2.84149 -10.359206 1.9467764 -1.9998765 -4.157171 -0.7577157 -2.7233493
0.652242 -1.9875902 -2.3902056 -0.88907576 -1.8026567 6.4464393 -5.6044397 -3.3796778
0.9328419 -4.6264267 -2.7842202 0.2758991 -5.3098235 -3.7474718 0.38020468 -6.5515966
2.9274404 5.662271 -3.3142374 4.319267 -2.9490666 -6.7963076 -2.2356033 -6.628006
-5.39994 -1.9777045 -1.6906391 8.2979355 -3.4769464 -2.272033 3.8976915 -2.657253
-5.2936096 -6.857078 4.3002872 7.03188 7.4443297 0.6150851 3.7404616 -8.729234
4.687024 -2.40404 6.0899687 -0.77044225 -5.1318445 -0.9448504 1.5912477 5.9577785
-5.0782247 5.030113 2.6822302 5.6785254 -2.2347355 -1.356129 4.7888775 7.1617627
1.9112641 -1.1070021 -2.99733 1.4691556 3.7373307 2.9529417 -4.390693 -1.9913342
0.69984114 3.5475657 1.9899445 -2.7810624

layer_pro.2.weight f4 [150, 220]
00000000: dbfa b33e 45a5 ec3c fefc a53e 0553 0b3f
00000010: 940d e4be 451b 183f 2c41 f33e 50ff 953e
00000020: f094 c0be 3801 f33d 6efa 36bf 5a87 e8be
00000030: eb86 41bd da7a 693e 5619 b73e 87a1 283e
00000040: 728c f7be 2275 cbbe 4f06 9d3e 6138 07bf
00000050: 74ef 18be fb8d 893e 3ed8 043f 51a0 95be
00000060: 8f29 04bf 18d1 0b3f 012c 4fbf 98e6 b8be
00000070: 0471 943e e7f1 053f cf55 51bf c6a0 9cbe
00000080: 7a94 df3e fcfa 883e 7142 27bf caad 93be
00000090: 043d a2be 72a0 303e 7e96 2ebe 3d9d 903e
000000a0: 16b5 f2be 37cc 193f a657 233f 43ca 063f
000000b0: 8988 30be 8b2a 4abf 5d7d 863c 091c b3bd
000000c0: 84cc 643e d420 98be 1efd 2c3e 32b9 3cbe
000000d0: bd83 cebc 7202 a7be 8448 88bd 7ac5 dfbe
000000e0: 3613 d3be 440e 033f c958 683f c00c 8a3e
000000f0: a634 c63e d33d cfbe ac05 823e a306 3b3e
00000100: 3f08 21bf 50fb 29bf 761c 62be dd13 853e
00000110: 831b 6d3e f8e7 7a3e 189b 0fbd 5dd1 a13e
00000120: eeeb 923d 00a2 8dbe 3ed6 43bf 712d 9abf
00000130: c692 15be 9e54 82be 9a6e b3bf 5374 11be
00000140: 3042 013f 0022 94bf a4de 22bf 5575 cabd
00000150: 56b8 e8bc e2e0 80be 1d6e 233e 9459 e53e
00000160: 10ce 573e 5885 6d3e 65f2 833e f9b6 3abf
00000170: f6eb d03e 1df7 a4bd 89a2 f7be 9f75 cf3e
00000180: b188 70bf baeb c1bd 2c8f a73e 5bf5 aa3e
00000190: 91b3 0c3f d0d7 073e dcde c2be 91b3 55bf
000001a0: eb9c 00bf 4011 103e a242 573d 49ca 3a3d
000001b0: 73ac 353e 25d7 093f e9a2 cdbf 2ba9 d53e
000001c0: 05b1 78bf 71b6 0abf dcaa d9be 9f9e 513f
000001d0: 13de c43e 5581 883f 944e dcbd 035b 9cbd
000001e0: 6795 21bf 805a 533f 261f 42be 88a3 093e
000001f0: b8f9 73bf 98b5 11bf b2af 5a3d ba91 923e
00000200: d369 a03d 0071 97be 8de7 183f b57b 003e
00000210: 35f0 123e dc06 1c3f bc5d f63c d581 a0be
00000220: 2884 80bc a69f acbe 720e 533e b3b8 0f3f
00000230: f8d5 93be 4873 8f3c 336e 1ebf 3606 1abe
00000240: c565 85be 84c7 8a3d 8602 4b3f 1a5c 6f3f
00000250: b68a 12bf 943c 873e 54c1 1dbf 8926 00c0
00000260: 9cc8 60be a943 183f 13d0 1fbe 219c d3be
00000270: a323 35bf af81 b9bb d675 83bf 50ba 00bf
00000280: 2b9f 19be 6bc3 053f 026d aebf ab39 9dbe
00000290: 679b 8fbe dd96 b63e 0ff3 79bd 829d d5bc
000002a0: 4679 313f 6cff 9cbe 0a86 62bf 4b8b 383f
000002b0: 35c2 0abe 348f 63be 197c 12be 84c6 ac3d
000002c0: 008a 443e 332d 70be 7541 d9be a1be 423d
000002d0: d79f 76bd a43e 2cbe 7d76 91be eff7 4abf
000002e0: caaa bc3e 1d25 cf3e eff3 923f cced abbe
000002f0: bfda d93b b6df 0cbe bf82 783e b48c fcbe
00000300: 67de 1dbe 29cf 72bf 408c 2fbe 4de2 77be
00000310: 7cad 43bf 3c5b 30bf 2c94 c43e 52d3 77bf
00000320: ac54 05bf 2159 9e3e cc36 f1be 054b ff3e
00000330: 8459 a3bf 62c7 c73d 484e 34bf b496 99bb
00000340: b03c 52be 341a cf3e 81d5 473e 49a3 7a3d
00000350: 0ee9 163f 2c96 ac3e df02 8abf f6aa 15bf
00000360: 86f6 f3be d199 1e3e 9428 fd3e 80a2 413f
00000370: bbbf 243e c2d1 5a3f 81f9 0a3f e6ee 973e
00000380: db57 c3be 7ef0 743d ff63 e0be 8e96 08be
00000390: 2f2c 1a3e 9eb9 16bf 8ada f83c ba75 9cbe
000003a0: 5b70 e4be d888 18be 781b 913e b7e1 8a3f
000003b0: e95e 31bf 14aa 6a3f 1551 ec3e 4b18 27be
000003c0: e98c 1b3e f198 43be c048 bd3e 5474 0d3e
000003d0: 6303 773e 0bbc 20bf 1217 c2bf 22b0 7bbe
000003e0: ebb3 c63e 51d1 0cbf f0fd aabf de94 d8bb
000003f0: 277e 07bf 2dc1 613f 8ee0 eabe 3f63 ea3d
0.35152325 0.0288874 0.3241958 0.5442355 -0.4454161 0.5941661 0.4751066 0.2929635
-0.3761363 0.11865467 -0.71475875 -0.45415765 -0.04724781 0.2280077 0.35761517 0.16467868
-0.4834934 -0.39737803 0.30668876 -0.528204 -0.14935094 0.26866135 0.5189246 -0.29223874
-0.51625913 0.54615927 -0.8092652 -0.3611343 0.28992474 0.5232224 -0.8177156 -0.3059141
0.43667966 0.26753986 -0.65335757 -0.28843528 -0.31687176 0.17248705 -0.17049596 0.28244963
-0.47403783 0.6007723 0.63805616 0.52652377 -0.17239584 -0.78971165 0.0164172 -0.08745582
0.22343642 -0.29712546 0.16893432 -0.18430021 -0.025209302 -0.32619053 -0.06654456 -0.4370535
-0.41225594 0.5119364 0.90760475 0.26962852 0.38712043 -0.40476856 0.25394952 0.1826425
-0.6290321 -0.663991 -0.2208117 0.25991717 0.23155026 0.24502552 -0.03506002 0.31605044
0.07173906 -0.2766266 -0.7649878 -1.2045118 -0.14606771 -0.25455183 -1.4018128 -0.1420453
0.5049162 -1.1572876 -0.6362097 -0.098856606 -0.02840821 -0.25171572 0.15959974 0.44794905
0.210747 0.23195398 0.2577087 -0.72935444 0.40805024 -0.080549456 -0.48366192 0.40519425
-0.93958575 -0.094687894 0.3272642 0.33390316 0.54961497 0.1326592 -0.38060653 -0.8347712
-0.5023944 0.1406908 0.05255378 0.04560307 0.17741565 0.5384391 -1.6065341 0.41730627
-0.9714511 -0.54184633 -0.42513168 0.8188266 0.3845068 1.0664469 -0.10757175 -0.076345466
-0.63118595 0.8255997 -0.18957195 0.13441288 -0.95302916 -0.56917715 0.053390212 0.28626806
0.07832684 -0.295784 0.5972832 0.1254719 0.14349444 0.60947967 0.030073993 -0.31349054
-0.015688017 -0.33715552 0.20610979 0.56141204 -0.28874183 0.017511025 -0.618869 -0.15041432
-0.26054206 0.06776336 0.79300725 0.9349991 -0.57242906 0.26413405 -0.6162312 -2.002352
-0.21951526 0.5947824 -0.15606718 -0.41330054 -0.707575 -0.0056612114 -1.0270336 -0.5028429
-0.15002124 0.5225131 -1.3627017 -0.3070806 -0.2804825 0.35661975 -0.061022814 -0.026076082
0.69325674 -0.3066362 -0.8848578 0.72087544 -0.13550647 -0.22222596 -0.14305152 0.08436301
0.19193268 -0.23454742 -0.42432752 0.04754508 -0.06021103 -0.1682077 -0.28410712 -0.79284567
0.36849052 0.40458003 1.1480693 -0.33579862 0.006648391 -0.13757214 0.24268626 -0.49326098
-0.15416871 -0.9484735 -0.17143345 -0.2420742 -0.7643659 -0.6888921 0.38394296 -0.96806824
-0.52082324 0.30927375 -0.4711212 0.49861923 -1.2761693 0.09754826 -0.7043195 -0.0046871547
-0.20530963 0.4044968 0.19515039 0.061190877 0.58949363 0.33708322 -1.0782126 -0.5846399
-0.4764902 0.15488364 0.4944502 0.7563858 0.16088764 0.85476315 0.5428696 0.29674453
-0.38152966 0.059799664 -0.4382629 -0.13338682 0.15055917 -0.5887698 0.030377645 -0.30558568
-0.4461697 -0.14895952 0.2834127 1.0850133 -0.69285446 0.9166577 0.4615561 -0.16317861
0.15190472 -0.19101311 0.36969566 0.13813907 0.24122386 -0.6278693 -1.516329 -0.24578908
0.38809142 -0.5500689 -1.3358746 -0.006609543 -0.5292687 0.8818539 -0.45874447 0.11444711

layer_pro.2.bias f4 [150]
00000000: aeb2 77c0 57c5 883f a967 a3bf 2a7b dc3f
00000010: 248d 6abf 4c82 8ac0 a239 36c0 ead7 e6bf
00000020: 3d31 dfc0 8dc2 74bf 03f5 9fc0 a414 c1c0
00000030: 682e f5bf 78bc e7be b8fc eabf bfaa 52c0
00000040: 6811 5c3d c63a 99c0 268e 3bbf be68 0ac0
00000050: af7b 27c0 1801 79c0 659d 17c0 cb30 95be
00000060: 2534 2ac0 c5d2 85be 913f 48c0 f02c 1dc0
00000070: 018d 143d 5b91 7bc0 3150 e7bf 6b28 adc0
00000080: 078b 7ac0 f164 8fbf 0880 b9bf 541e 4cc0
00000090: c8aa 8bc0 4381 61c0 59b2 e7bf bfc6 65bf
000000a0: c207 b1c0 90d7 46c0 926a 5bc0 2f29 09c0
000000b0: 541a 03c0 9a2d 69bf 615b dcc0 77ab 05c0
000000c0: abdd 9bc0 7786 80bf 961c 19bf 151e 9fbe
000000d0: 252e 9fbf fb98 83be e55b 16c0 4620 71c0
000000e0: 66c8 41bf 4ccf e7bf fcfe dcbf 65b1 c7bc
000000f0: 7001 debf ce48 5dc0 b44b a9bf 294a 79c0
00000100: 232e 87bf 788a 9cc0 87af 01c0 8ad2 23c0
00000110: db48 883e b6d5 1fc0 cabb 92c0 3990 86c0
00000120: 1a94 88bf 13c1 66c0 adcd 06c0 41d3 9dbf
00000130: c1e7 2dbf a35f 52c0 9a65 1bc0 86f8 21c0
00000140: 4c7d 4cc0 3232 d4be c0a1 26bf 38f5 b3bf
00000150: 3b38 6dc0 7dca ddbf ad06 3fbf 1582 d5c0
00000160: 3f1f 05c0 4f34 a3bf 1f63 74c0 0ea2 fa40
00000170: f5bf aebf bed9 b8c0 219b 3ec0 0d39 32c0
00000180: 507e 4b3f ce9c 6fc0 f1ae 87c0 8626 d3bf
00000190: 2ca5 6cc0 c256 b6bf 40fb 9cc0 d1c1 be3f
000001a0: f5e8 12c0 fe69 17c0 f8fe 80be 4e6d 1bc0
000001b0: 2f7d d0bf 0680 96bf 368a b8bf d8da 1bc0
000001c0: cdda 04c0 436a 3cc0 b00e 1bc0 7e0d 8fc0
000001d0: c436 10bf ac3f 0fbf fa90 f6bf 17b7 23c0
000001e0: 9339 afc0 a2d7 93c0 32d6 a7bf 4ee6 64bf
000001f0: db56 4bc0 e93f 92bf b347 aac0 3afe cfbf
00000200: 64cd 64c0 3abf a1c0 a0a0 a0bf 9bb6 fcbf
00000210: b348 dbbe 63e2 293e a9cf 5bc0 364e 06c0
00000220: 44d5 cdbf fa02 93be ae8d ffbf 1d46 44c0
00000230: 38e0 733f 1ebb 66bf f453 acc0 a390 b4c0
00000240: a1ea fbbf 2599 4cc0 8824 90c0 5863 98bd
00000250: ec30 5fc0 0150 a0c0
-3.8702807 1.0685223 -1.276601 1.7225087 -0.91621614 -4.3284054 -2.8472676 -1.8034642
-6.9747605 -0.9560936 -4.9986587 -6.0337696 -1.9154787 -0.45260978 -1.8358374 -3.2916715
0.053727537 -4.7884245 -0.73263776 -2.162643 -2.616924 -3.8906918 -2.3689816 -0.2913879
-2.6594326 -0.26137367 -3.1288798 -2.4558678 0.036267284 -3.9307468 -1.8071347 -5.411184
-3.9147356 -1.120268 -1.4492197 -3.189351 -4.3645973 -3.5235145 -1.8101302 -0.8975639
-5.532197 -3.106907 -3.4283795 -2.1431386 -2.048482 -0.9108521 -6.8861547 -2.0885904
-4.870809 -1.0041035 -0.59809244 -0.31077638 -1.2435957 -0.25702652 -2.3493588 -3.7675948
-0.7569641 -1.8110137 -1.7265315 -0.02437658 -1.7344189 -3.4575686 -1.3226228 -3.8951514
-1.0560955 -4.891903 -2.0263383 -2.5597253 0.26618084 -2.4974189 -4.5854235 -4.2051053
-1.0670197 -3.6055343 -2.1063035 -1.2330095 -0.67931753 -3.2870872 -2.4280763 -2.5307937
-3.1951475 -0.41444546 -0.6509056 -1.405921 -3.706557 -1.732742 -0.7461956 -6.672129
-2.080032 -1.2750338 -3.8185499 7.832282 -1.3652331 -5.77658 -2.9782183 -2.784732
0.7948961 -3.7439456 -4.240105 -1.6496131 -3.6975813 -1.4245226 -4.90567 1.4902898
-2.2954686 -2.3658442 -0.25194526 -2.4285464 -1.6288203 -1.175782 -1.4417179 -2.4352322
-2.0758545 -2.9439857 -2.4227715 -4.470397 -0.56333566 -0.5595653 -1.9262993 -2.55805
-5.475778 -4.6200724 -1.3112242 -0.8941392 -3.1771762 -1.1425754 -5.3212523 -1.6249459
-3.575036 -5.054593 -1.2549019 -1.9743227 -0.42828903 0.16590266 -3.4345496 -2.0985236
-1.6080709 -0.28713208 -1.9965112 -3.0667794 0.95264006 -0.9012927 -5.385248 -5.642656
-1.9680978 -3.1968472 -4.5044594 -0.07440823 -3.487361 -5.009766
